POLAR_Express_Benchmarks/cora/neural networks/docking_tanh64x64_tanh.onnx (onnx, 20290 bytes, 8 tensors)

layers.0.bias f4 [64]
00000000: d05f 213d 5d8e 963d 12aa 043c 5381 ec3c
00000010: aaa8 063d 5f11 b53c ffe0 053d b7cf 83bd
00000020: 77f2 b53d 5ac9 d9bc a0ca cdbc a1dc 8ebc
00000030: 8c77 d1bb c666 213b 367b 1c3d 01f8 0c3e
00000040: 1b11 0dbd bb0c f93c ada3 483d 725e 41bd
00000050: 4056 50bc 13ee b5bd a372 0f3e 0c2f 9abd
00000060: d8ab 91bd 391c 59bd ce47 b03d ebef 37bd
00000070: 11b4 67bd 1290 e03c ad1c a53c e053 f3bd
00000080: e326 88bd 274b c3bd 8288 9d3d 9801 543d
00000090: 0f18 1abe ae7c 983c 311d 603c 28e3 37bd
000000a0: 68e6 cebb ba5b f1bc 7ef1 1cbc b0b1 323c
000000b0: 7f4f a03d 56fc 463d a00e a0bc a22a 713c
000000c0: f2f4 35bd de18 eabc 7b0e 91bc 7f5b c63d
000000d0: 293a 333d dd1d e13c 8374 41bc 6e78 973c
000000e0: f288 c93d 366e c53c c737 2b3d 2330 17bd
000000f0: eb9a dbbc ca35 8dbc 00b9 073c 8cda a13c
0.039398015 0.073513724 0.008097189 0.02887026 0.032875694 0.02210301 0.032685276 -0.06436103
0.08884137 -0.02658527 -0.025121033 -0.017439188 -0.006392425 0.0024627908 0.03820344 0.13766481
-0.03444014 0.030401578 0.04898422 -0.04720921 -0.012715876 -0.088833 0.14008574 -0.07528505
-0.07112855 -0.05300543 0.08607446 -0.044906538 -0.05656821 0.027412448 0.020155275 -0.11881232
-0.06648042 -0.095358185 0.076920524 0.051759332 -0.1504824 0.01861414 0.013678835 -0.044894367
-0.0063140877 -0.029462684 -0.009579061 0.010906622 0.07827663 0.04858049 -0.019538224 0.014719637
-0.04442305 -0.02857631 -0.0177071 0.0968542 0.043756638 0.02748006 -0.011807564 0.018490043
0.09840573 0.024100404 0.04180124 -0.03691114 -0.02680727 -0.017237563 0.0082838535 0.019757532

layers.0.weight f4 [64, 6]
00000000: d625 3740 0c26 013f 5f72 593e 9384 833d
00000010: 8bc9 b5be 1f3c 95be ad9c 4dbd 18ac 0dbf
00000020: c949 f33d d792 0abf 55c7 46bf 4e36 a0be
00000030: 9cc4 3b3f ceeb f4bf eb47 debe 1825 e43e
00000040: 761a 10bf d7e1 1f3e 44e1 2c40 cd5b 233f
00000050: 67b2 0bbd fd17 cbbd 3a6a 843e ba9b a6be
00000060: bb38 483f 252c 8a3e ed16 33be cc2b b83e
00000070: 2ff5 f9be bb86 a9be 41e1 b4bf b8a5 773d
00000080: d8eb f53d d307 153f dfa9 b8be 560a 51be
00000090: 916b 023f 3ea4 b33e e2fe 8bbe ce7f 843f
000000a0: 419c 3abe e794 7fbc 0074 c9bd 494e 98be
000000b0: 408a c13e ec4c 1f3f 0e3d 3bbc a156 493f
000000c0: a04d 893e c6db 9c3f 7cb5 383e 8d9a a3be
000000d0: 518d 6bbf c0b6 71be de1a 193f b277 cebf
000000e0: 522f 4abe f2bc 263d 9528 0c3e d012 0d3f
000000f0: 3b11 093e c442 a53e 8a0d 943e eca2 4e3f
00000100: 0d47 823e a2fa db3e 2206 6f3f 51f6 2fbe
00000110: d52d f3be 980f e43e 6fce 483d b0c2 efbe
00000120: 7e8a 493e 730b 84bd 5012 38bf 23df db3e
00000130: 684f 04be c9c1 c13e 77ec 35bd e344 c6be
00000140: ea72 3b3e 9cce 5bbf 1f76 983d cff2 09bf
00000150: bc80 193e 2f8d 71be edb8 d13d a8ca a73d
00000160: adf2 db3d 8959 6abf 2425 81bc 24cb 49be
00000170: 9dd1 f13d 108e 2abe 3f0e 94bf 8e38 953e
00000180: 7852 b53e f3b3 9cbe 3808 423f 62c9 273d
00000190: b4a4 0d3f ead3 edbe 2789 853d b715 bd3f
000001a0: 9778 293f 3894 52be 206b 7e3e 73a6 9a3e
000001b0: e9b8 523c 356d b23e dd7a 0dbf 099c 163f
000001c0: 7b3b babe 2a5d acbe bf1b 03c0 b027 cbbf
000001d0: 6972 3a3f 2734 823e 5089 3cbe fd67 0c3f
000001e0: 6f8b 7bbf c0b8 f83e 90d1 aabe 5603 433e
000001f0: 439a 303e f85e 8f3e 4c47 893f eb8f 0340
00000200: 6e76 c3be c445 cdbe 00df 81be f136 97be
00000210: bb2c 963e db73 033f 959d 19be 7d72 78be
00000220: 2b3a 32bf d6b2 d8bd 0198 94bd fbac 03be
00000230: 0309 293f 2e09 3fbe d8ff 363f a064 efbe
00000240: 1d58 e53f 6679 c8be 2d76 f3be 77e4 ee3c
00000250: 000e febd 98bb 5cbe c2fd a5bf 3eb4 693f
00000260: 25ee 13be 0c68 9cbd 27f4 093f 60ac 4ebe
00000270: 0bca 393d f1d3 f5bd bf0d 1d3c 77c9 763f
00000280: 6a4a 8ebe 8806 63bd f23d 7c3d 0e14 793f
00000290: bc3c c6be 0f67 5ebe 228d 433f a284 f4bc
000002a0: a75a 833f 302e d23e d9f7 fd3e d80f 09bf
000002b0: a9b8 c73d 8174 443e 577f ec3f 353d 253f
000002c0: 4b43 36bf bb52 41be 578d b43e 220f 393e
000002d0: c688 963d b313 293e 1ac7 32bf 2f99 e1bd
000002e0: d195 08bf d40f b0be b9ce e23e 06c7 063f
000002f0: 3123 9cbe ec92 6d3e 6503 0d3f a396 3fbf
00000300: 6e11 01bf 4130 113d d941 77be 34e5 3abf
00000310: d5f3 833e 2f26 f73e a1c3 cbbf bf08 e5bd
00000320: 9ffb 573f 2f94 113d d3dd 923e 96ae 95be
00000330: c4a2 b7bd 79dc a03c 55db 373f ab47 113c
00000340: 61d8 aebe 4687 cdbe 3e8b 573c b11a 1d3f
00000350: 76de 1c3e 7c78 803e bb45 39bf 13dc 0dbf
00000360: 5de8 b0bd 1e6a 773f d0dc 12be fbd7 abbe
00000370: f746 313f e291 14bf f375 033f 1e92 4ebf
00000380: a982 e03e 32d9 d7bc 2a48 f9be 3ed0 2ebe
00000390: efbb b2bd 071e 23bf 7ddf 0ebf ba37 22bf
000003a0: e6e1 13bc adae 36be 7fe1 cdbd 90f4 ea3e
000003b0: f533 55bf 64d3 35be d6f9 af3e ae7b 3a3e
000003c0: 5efb 56bf a008 71bf eaf1 383f 51bb 7fbe
000003d0: 9c9f 393d daf2 983e 6e6d 7dbf 6b1d d23f
000003e0: f983 8d3e a17a 17bd 4ec2 463e 74a1 38bd
000003f0: 8524 12c0 e596 0bbf 13fa 073f 371d 0ebf
2.8616843 0.5044868 0.21235035 0.06421771 -0.35505328 -0.2914743 -0.050198246 -0.5534072
0.11879308 -0.5413031 -0.77647907 -0.3129143 0.7334688 -1.9134462 -0.43414244 0.4455955
-0.56290376 0.15613495 2.7012491 0.6381195 -0.034105685 -0.09916685 0.25862294 -0.32540685
0.78211564 0.26986805 -0.17489214 0.35970914 -0.48819873 -0.33110604 -1.4131242 0.060460776
0.12007874 0.58215064 -0.360671 -0.20414099 0.50945383 0.35086244 -0.27342898 1.0351503
-0.18223669 -0.015599466 -0.09836578 -0.29747227 0.3780079 0.6222675 -0.011428131 0.7864781
0.26817036 1.225457 0.18037981 -0.3195385 -0.92012507 -0.2360487 0.5980662 -1.6130278
-0.19744614 0.040707536 0.13687356 0.5510683 0.13385479 0.322775 0.2891658 0.8071735
0.25444832 0.42964655 0.9336873 -0.17183806 -0.47495905 0.44543147 0.049024995 -0.46828222
0.19681737 -0.06447496 -0.7190294 0.42943677 -0.12920916 0.3784316 -0.044414964 -0.3872443
0.18305555 -0.85862136 0.07444405 -0.5388612 0.14990515 -0.23589014 0.1024035 0.081929505
0.10739646 -0.9154287 -0.01576478 -0.19706398 0.11807559 -0.16655755 -1.1566848 0.2914471
0.3541448 -0.3060604 0.7579379 0.040963538 0.5532944 -0.4645074 0.065203 1.4772252
0.6619963 -0.20564353 0.24845552 0.30205116 0.012861469 0.34848943 -0.552656 0.5883184
-0.36373505 -0.3366483 -2.0485685 -1.5871487 0.72830826 0.25430414 -0.18411756 0.54846174
-0.98259634 0.48578453 -0.33363008 0.19044241 0.17246346 0.28002143 1.0724883 2.055659
-0.38176292 -0.4009229 -0.25365448 -0.29534104 0.29331002 0.51348656 -0.15001519 -0.24262424
-0.6962001 -0.10580985 -0.07255555 -0.12858956 0.66029376 -0.18655846 0.71484137 -0.46756458
1.7917515 -0.3915512 -0.47551098 0.029161675 -0.12405014 -0.21555936 -1.2968066 0.9129065
-0.14446314 -0.07637033 0.5388817 -0.20182943 0.0453587 -0.12003315 0.009585797 0.9640116
-0.27791148 -0.05542615 0.061582513 0.97296226 -0.38718212 -0.21719001 0.76387227 -0.0298484
1.026204 0.41050863 0.49603155 -0.535398 0.09752018 0.19185068 1.8476361 0.6454652
-0.7119643 -0.18879215 0.35264084 0.18072179 0.07350306 0.16511421 -0.69835055 -0.110155456
-0.533536 -0.34387076 0.44298342 0.52647436 -0.304956 0.23200577 0.55083305 -0.7483923
-0.5041722 0.03544641 -0.24146213 -0.73005986 0.25771967 0.4827132 -1.5919076 -0.11183309
0.8436832 0.03554171 0.28684863 -0.2923476 -0.08966592 0.01963638 0.7181905 0.008867185
-0.3414946 -0.40142268 0.0131557565 0.6136885 0.15319237 0.25091922 -0.72372025 -0.5541393
-0.0863807 0.96646297 -0.14342046 -0.33563218 0.6924891 -0.580351 0.5135185 -0.8069171
0.43849686 -0.026348684 -0.4868787 -0.17071626 -0.08727252 -0.63717693 -0.55809766 -0.6336628
-0.009026026 -0.17840071 -0.100527756 0.4588971 -0.83282405 -0.1775642 0.34370297 0.18211243
-0.83977306 -0.94153786 0.7224413 -0.249738 0.04531823 0.2987278 -0.989951 1.6415228
0.2763975 -0.036982182 0.19410059 -0.04507585 -2.283479 -0.5452712 0.5311596 -0.5551333

layers.1.bias f4 [64]
00000000: 49db 8cbd 1fab 20ba 36a4 523d 0864 79bd
00000010: c526 1b3c 0f37 4a3d 25ee 1cbd 2c6e 7fbd
00000020: 2e64 693a 35fd c4bd d19f c6bd 2c95 853c
00000030: c929 073d 6818 573c b180 3f3c 6c94 78bb
00000040: 45a9 d4bc e59a 6cbc a2ee 133c 2386 843a
00000050: e0d6 eb3d 4b72 83bd cf11 1cbd b921 12bd
00000060: db0b 9fbd fb03 b33d 63d0 9bbd 7d97 afbd
00000070: 395d de3c eed0 833d 145a 083c b939 86bd
00000080: 20bc 4f3c dd64 ae3d 983d 153d 8215 62bd
00000090: 7cdf 0e3c bd6a 61bd 43f1 9b3c 6afc a13c
000000a0: 88d7 28bd a387 fdbd e2f0 83bc 26f4 aebb
000000b0: 5942 7abd e1cf 893d e4d7 71bd 82e8 16bd
000000c0: 5c60 0bbc e49b 953b 1f10 ffbc 2404 7a3d
000000d0: 969d aa3b 9e24 d1bd 74af 443d ca66 253d
000000e0: 92c8 903c dc9a 29bd 6be5 0b3e 9634 853c
000000f0: d0c5 673d 7210 533d a5ff 593d e89d b23c
-0.06877763 -0.00061290147 0.051426135 -0.060886413 0.009469693 0.049368914 -0.03831305 -0.062360927
0.00089031726 -0.09618608 -0.09698451 0.016306482 0.032998834 0.0131283775 0.011688397 -0.0037930263
-0.02595962 -0.014441227 0.009029062 0.0010110777 0.115155935 -0.06418284 -0.03810292 -0.03567669
-0.07765933 0.087409936 -0.07608106 -0.08573816 0.027144061 0.064363346 0.008322258 -0.065539785
0.01267913 0.08515332 0.036435694 -0.055196293 0.008720275 -0.055033434 0.019035941 0.01977368
-0.04122117 -0.12379386 -0.016106073 -0.0053391634 -0.06109843 0.06729103 -0.05904378 -0.03684283
-0.008506861 0.0045657028 -0.031135617 0.061039105 0.005206774 -0.10212062 0.048018888 0.04038123
0.017673764 -0.04140745 0.13661735 0.016260426 0.056585133 0.051529355 0.053222317 0.021803811

layers.1.weight f4 [64, 64]
00000000: 98f1 1ebd c817 a2bd 23cc 57be d2c7 36be
00000010: f50e e3bc d193 d03d 3b29 6f3e de43 6fbb
00000020: 41e5 00be b536 b8bd d830 6f3e 1f0a af3d
00000030: d0ae 86bd 4e07 133e 729b 393d e13f 0dbd
00000040: a4f4 f63e dcce 6f3d f588 81be e720 673d
00000050: a159 27bc 3502 1c3e 8332 38be 39fd b43e
00000060: 089f 3c3e da4a a0bd 79ff 58be bfaa 5fbc
00000070: 4fea 173e 3061 8bbe a186 183d d033 03bd
00000080: 6fa5 71be a8ca 283e 460a 133e c36a 373e
00000090: 4047 40bd 36b6 ca3d 77a9 2fbe 9c60 40be
000000a0: f632 083d de7c 2abe 36f3 48be a3b6 74bd
000000b0: ba88 29be d718 07bd fc78 65be 062f d63c
000000c0: 9eb6 173e cd79 853d bef9 a93c 5d8e 22bd
000000d0: bec3 29be 3061 693d 602d 233e 265c bebd
000000e0: 18c6 1cbe 6c33 c33d 1bf0 cb3d 561d bd3d
000000f0: a66c 573d 9b38 393e f6fb debc 8cc9 7c3e
00000100: c851 c2be 19be 30bd 1480 3cbf df62 56bf
00000110: 3ce2 833d f790 1f3f 2d9a 5ebe e52d 233e
00000120: b914 d8bd 6cbc f7bc ccfb 813c 1a23 26be
00000130: 4519 a5be a139 b33d 5022 34bd 8ff1 903d
00000140: 2323 a73e c892 843e b4ec 95be 6d2d bd3e
00000150: b10d 633d 7ca7 84be c3c6 2cbe aff6 033f
00000160: a6c5 1dbf 8850 993c a29e 143e 9dc7 aabe
00000170: 9cd9 2fbe 2b92 9dbe 9585 7abe 2c93 a23d
00000180: b1dc debc 2f86 223f 391b bc3e 22ee 333d
00000190: 0f1d aebd b389 463d 8609 a6be 5dfe 22bf
000001a0: 9035 703e 773a 4f3f 05cf d03e 5434 d1be
000001b0: f482 e13e 7d0a b2be 7294 8b3d 3e4d 8d3e
000001c0: b38b 333e 496d 953c c4b5 473e a936 823c
000001d0: 5587 41bd 59ee 56bd b600 8bbb 9fbc 9cbe
000001e0: 6179 b93e 3f20 09be a379 a8be ff93 143e
000001f0: 20b3 f7bd b86d 123f dd5f e4bd ab7e 873e
00000200: a50c 48be 98e3 53be 7add 13be fab4 50bd
00000210: 0793 543d 25b4 d43d 024b 8fbd 50b0 d93d
00000220: 5d01 4b3e cedb aa3d 6b36 cebc e1af 2abe
00000230: 6e0e b8bc b00c 50be 1914 e33d 943a e9bd
00000240: 8620 cf3d 8667 7f3d 3318 f43d 07e4 b1bd
00000250: c1ca a33d a237 abbd 0062 73be 7d46 4b3d
00000260: 448a 49bd 7673 e63d 49fc 69be cf97 7fbe
00000270: 2c93 e9bb 49ee 703e 2ef7 20be e8d3 143e
00000280: bea5 b8bd ed3d be3d 8bcb 2a3e 99f3 ff3b
00000290: 2665 bdbd 40fc 1cbd 0066 18be 1fc2 503d
000002a0: 8d22 f3bd 0470 083d 7ebb d4bd 815a 483e
000002b0: 47f6 1ebe 2394 b83d 688b edbd 7251 69be
000002c0: c59b 5f3d 94c0 10be 1723 66bd 8d76 78bd
000002d0: a13c ae3e cfd0 80be ca77 19be c8b3 ad3d
000002e0: d870 953d ccc8 bbbe 2b52 e0bd fa23 d7bc
000002f0: 4a0d 05be 40ff 023d 97dd 91bd ec77 0e3e
00000300: cad8 ecbe c21e 2c3e 0add 483e 1408 9dbe
00000310: 503f 4dbe 17b5 bd3e 3b38 af3c ae48 6f3e
00000320: 1bdf 3cbe 150d 0f3e c5de fdbd 7b8c debc
00000330: 4f61 373e c9ce 91bd 399a 043e 06b0 0abc
00000340: ab62 07be c07d 95be eeb4 86bc 1e9c 403e
00000350: fd41 aebd b43a 09be b7c7 9bbe 0bee f13c
00000360: 93db cfbd fa31 9d3d e307 863e de42 fbbe
00000370: 455c 58be ede6 47be 2f02 7ebc 3672 34bc
00000380: cb0a 97be 919d 1a3d 2f68 83bd a3d1 553d
00000390: e9f6 13be dde2 293e af53 423d 1d0a 97be
000003a0: 59c5 2b3e d52b 17bd a401 5d3e f499 3abe
000003b0: 0eb0 a3be 36cd 20bf 9674 773d 5a30 93bd
000003c0: 949d 163f a04d f8bc b065 273d 4863 2cbe
000003d0: 1db8 acbe 9596 21be da82 dc3d 8ada 923d
000003e0: cc5a cfbd e476 193c d677 83bd d64d 4dbe
000003f0: 2fa0 193e 5aba fa3d 449e 653e d5ee be3e
-0.03880462 -0.07914692 -0.21073966 -0.17849663 -0.027717093 0.10184444 0.23355572 -0.0036508958
-0.12587453 -0.089948095 0.23358476 0.08546852 -0.065763116 0.14358255 0.04531426 -0.034484748
0.4823352 0.058546886 -0.25299802 0.056427862 -0.01021424 0.15235217 -0.17988019 0.35349444
0.1842004 -0.07826777 -0.21191205 -0.013651549 0.14835475 -0.27222586 0.037237767 -0.032031834
-0.23598264 0.16483557 0.14359388 0.1791182 -0.04694295 0.09898035 -0.1715449 -0.18786854
0.033251725 -0.16649196 -0.19624028 -0.05974449 -0.16556063 -0.032982673 -0.22409433 0.02614547
0.14815757 0.06517372 0.02074897 -0.03968655 -0.16578576 0.05697745 0.15935278 -0.0929492
-0.15309942 0.09531292 0.09957906 0.09234111 0.05259385 0.18088 -0.027219754 0.24686259
-0.3795302 -0.04315004 -0.7363293 -0.83744615 0.06439635 0.62330574 -0.21738501 0.15935476
-0.105508275 -0.030241214 0.015867136 -0.16224328 -0.32245842 0.08751226 -0.043978035 0.07077324
0.32643995 0.25893235 -0.29282153 0.3694872 0.05543298 -0.2590903 -0.16872697 0.51548284
-0.6162971 0.018715158 0.14513639 -0.33355418 -0.17172855 -0.3077558 -0.2446502 0.07938227
-0.027204843 0.63486 0.3673952 0.043928273 -0.08501636 0.048471164 -0.3242914 -0.6366938
0.23457932 0.80948585 0.40782943 -0.40860236 0.44045222 -0.34773627 0.06815423 0.27597994
0.1753376 0.018240588 0.19502932 0.015895205 -0.047248203 -0.0524734 -0.004242028 -0.30612656
0.36225417 -0.13391207 -0.329053 0.14509581 -0.12094712 0.5719867 -0.11151097 0.26463827
-0.19536074 -0.20692289 -0.14439955 -0.050953843 0.05189803 0.10385922 -0.069967285 0.10629332
0.19824739 0.08342706 -0.025172433 -0.16668655 -0.022467818 -0.2031734 0.11087818 -0.11388126
0.10113625 0.062354587 0.11918678 -0.08686071 0.079976566 -0.083602205 -0.23767853 0.04962777
-0.049204126 0.11252491 -0.22850145 -0.24960254 -0.00712814 0.23528399 -0.15719292 0.14533961
-0.09015988 0.09289155 0.16679208 0.0078110215 -0.09247808 -0.0383265 -0.1488266 0.05096638
-0.118718244 0.03330995 -0.10387324 0.19565775 -0.15523635 0.0901263 -0.11598855 -0.22784975
0.054591913 -0.14135963 -0.056185808 -0.060659934 0.3403063 -0.25159308 -0.14987102 0.08481556
0.07296914 -0.36676633 -0.10953172 -0.026262272 -0.1299335 0.031981707 -0.07122343 0.13912934
-0.46259147 0.16808608 0.1961557 -0.30670226 -0.20043683 0.37052223 0.021389117 0.23367569
-0.18444483 0.13969834 -0.123960055 -0.027166596 0.17908214 -0.07119519 0.12949456 -0.008464819
-0.13221233 -0.29197502 -0.016443696 0.18809554 -0.0850868 -0.134013 -0.30425808 0.029532453
-0.10149302 0.07675548 0.26177892 -0.49074453 -0.21128948 -0.19521685 -0.01550345 -0.011013558
-0.29500422 0.037747923 -0.06416356 0.05220188 -0.14449657 0.16590448 0.04744309 -0.29499903
0.16774501 -0.036907036 0.21582657 -0.18222791 -0.31970257 -0.6281313 0.06041392 -0.07186957
0.58834195 -0.030310452 0.04086846 -0.16834748 -0.33734217 -0.15780099 0.107671455 0.07170589
-0.1012474 0.009366725 -0.06419341 -0.20049223 0.15002511 0.12242575 0.22423655 0.3729159

layers.2.bias f4 [4]
00000000: f44f 023c 91bf 93be 5625 513b fb1c a1be
0.007953633 -0.2885709 0.0031913123 -0.31467423

layers.2.weight f4 [4, 64]
00000000: 3cc7 ccbd b9fa 8d3e 1471 21bc 19ad 853d
00000010: 4e76 023d d323 ae3d 1443 b23b 27eb 673c
00000020: 179d 97bd bcda 153d 4e9a 933d 6592 e93d
00000030: de65 d53c b828 9b3d 7afe be3d 38c9 c43c
00000040: d590 183d 4dff d23e e485 83bd de72 2c3c
00000050: 7843 703c c665 a9bc 6820 43bc 830c 14bc
00000060: ca8f c53c f8c3 4cbd e384 9fbc 42f7 8cbd
00000070: 827a 9e3d 0694 c7bd 6523 61ba b4e6 403d
00000080: 62c7 5a3b 3912 dcbd 26a6 de3d 9bf7 a8bd
00000090: 6342 42be 7712 93bc add2 883d 6e92 413d
000000a0: b8c6 d8bd 63e3 a2bc 53cd dfbd ec1d d73a
000000b0: 477d f23c af1c 10bd 40eb 1d3d ae4b 6abd
000000c0: ae48 79be 2899 013e 5ed3 cabd c73c a2bd
000000d0: d5df 07bd 948b c93c 9ebe 05bd da0e 45bb
000000e0: 4959 d6bd 822e 8bbc 40b0 843d 7eb8 a8bb
000000f0: 92d9 b83c 73a1 04bc 5e4f 903d effa d8bd
00000100: db87 60bd b413 be3d da2c a2be 6552 cb3e
00000110: 76ed 8b3e e4c9 8a3d fcdc 8a3e 5bc5 d73e
00000120: 4ece c1bd 101b c53e 2678 8a3e 8d44 f8bc
00000130: 7ced 2dbe 082f 8d3a ccd2 8dbd 411c dfbd
00000140: cf7e 78bd 52b8 c6bc ae72 46be df86 06be
00000150: 11d6 cfbe 6a73 373e 3642 ec3d 7f36 933e
00000160: 6043 493e 05f8 5ebe f083 a33e d343 293e
00000170: 4879 7a3d 8211 82bd d4e4 4b3d 4af1 3cbb
00000180: 3747 973e 2305 05be f98a 8f3c d86d 10bc
00000190: ef19 94bd 3d5a c63d d3c6 e9bc cae4 0abe
000001a0: 6d41 77bc 076e c73e 1666 2dbe c9fa 543e
000001b0: f302 c33d 37e4 08be 5e79 a33e 9927 f33d
000001c0: 7801 20be cb99 913c a1a1 bcbd bb26 c8bd
000001d0: 32d0 023d b48f ee3e a183 c5be 0244 a8be
000001e0: 2d39 64bd 8d36 a33e bc53 7dbe 994d c4bd
000001f0: 8537 9cbe dc6a 86be 90c7 40bd 9f30 b2bc
00000200: e9b2 52bd ef00 fbbc b690 3cbc e0ef 9bbc
00000210: e5b8 e5bb 6816 5a3d af72 9cbb d427 05bd
00000220: 3bfb 9c3d 1804 31bc 9f04 013d ccb9 2ebd
00000230: e879 0abe 9b6b 9e3c b40a c2bd 40cd 803d
00000240: 38b7 babe c7ac 183e 6721 f13c a762 c8bd
00000250: d73f 683c 437f 5fbc f5f6 f9bd 46ea 63bd
00000260: 2455 a33d 401e 59bc 6c87 64bc 4dec 933b
00000270: c784 5bbd 8249 febc cbfb 92bd ea94 083e
00000280: f4b7 25bb d186 4f3c 207e 8c3d af03 af3d
00000290: 0247 f13d 731b 773d f781 d2bd 2261 6cbd
000002a0: 2977 a1bc 2c9c adbc 6b84 34bd c6e2 1dbc
000002b0: 7ba7 183d 2abf 72bd ec1e 86bc f515 af3d
000002c0: a0f6 403e b061 cc3c cd7d df3d d919 47bd
000002d0: 3612 d2bd bca9 4c3d 80ae 743c 33ba e7bb
000002e0: 41fc 433d 15aa dcbb a554 01bb 03ea afbd
000002f0: 7745 5f3c 1350 be3b 4a2e 133d 400a 093d
00000300: bd3e 353d 3ccc 96bc f68d 8abe cafc 693e
00000310: 5e9c a03e 1088 15bd b4b8 d63e cb6f 943e
00000320: b197 f0bd 653a b53e 28de 8c3e c086 febd
00000330: 7b02 cfbb 1fcb b3bd 9e4d cabd 98c3 a4bd
00000340: 2709 1bbe b735 863d 0e97 6bbe dcdd 8e3c
00000350: 372f b9be 62b3 863e 3bd8 3d3d 95f4 043e
00000360: 4354 cc3d 1373 a0be ffd2 bc3e f09f 943e
00000370: c779 d8bd a4fa 2cbe bb1f 133d 84f4 993d
00000380: aa1f 8c3e 3fde 40be d85c 4cbb f251 0e3c
00000390: 1094 ba3d ebd4 b43d 00d4 0c3d 55bb 87bd
000003a0: 44a4 803d 88a7 1e3e 149f 883d 7ad0 9c3e
000003b0: aecd 5e3e e9dc 05be 7a20 c63e 5e35 753d
000003c0: 4e55 c9bd bf6e bb3c 79d4 a53d 0b8d 24be
000003d0: c7b9 24bd 4f03 473d b083 acbe 9d8d 7bbe
000003e0: 567f 79bd 0eae 983e 00bb b6be f281 a6bc
000003f0: 3c25 bfbe e98c 95be 6be5 07be ec04 0a3c
-0.099989384 0.2773035 -0.00985362 0.065271564 0.031851105 0.08502927 0.0054401252 0.014155186
-0.074030094 0.036585554 0.07207166 0.11404876 0.02604955 0.07576126 0.09325881 0.02402173
0.037247498 0.41210404 -0.06422022 0.010525433 0.014664523 -0.020678412 -0.011909582 -0.009036186
0.024116416 -0.049991578 -0.019472545 -0.06883098 0.0773821 -0.0974503 -0.0008588343 0.047095016
0.0033383002 -0.10745663 0.10871534 -0.08250352 -0.18970637 -0.01795314 0.06680808 0.047258787
-0.105847776 -0.019883817 -0.10927834 0.0016412116 0.029600753 -0.035183605 0.03855443 -0.05720108
-0.24344131 0.1265608 -0.09903596 -0.079217486 -0.033172447 0.024602689 -0.03265249 -0.0030068667
-0.104662485 -0.01698995 0.064789295 -0.0051489463 0.022564683 -0.008095133 0.07046388 -0.10594737
-0.054817062 0.09281102 -0.31674844 0.397113 0.27329606 0.06776789 0.27121723 0.42142758
-0.094631776 0.3849721 0.2704479 -0.030306125 -0.16985124 0.0010771463 -0.06924972 -0.10894061
-0.06066781 -0.024257813 -0.19379684 -0.13137387 -0.40593007 0.1791512 0.11536066 0.28752515
0.19654608 -0.217743 0.31936598 0.16529779 0.06115082 -0.063509956 0.049778774 -0.0028830343
0.2954652 -0.12990241 0.017522322 -0.008815251 -0.07231509 0.0968518 -0.02853719 -0.13563839
-0.015091282 0.38951132 -0.16933474 0.20798792 0.09522047 -0.13368307 0.31928533 0.11872787
-0.1562556 0.01777353 -0.09210516 -0.09773012 0.03193683 0.46594012 -0.38576987 -0.32864386
-0.05571859 0.31877556 -0.24738973 -0.09585113 -0.30511108 -0.26253402 -0.047065318 -0.0217517
-0.051440153 -0.030640094 -0.011509111 -0.01903528 -0.0070105665 0.053244025 -0.0047744135 -0.032508686
0.07665106 -0.010804199 0.031498548 -0.04265766 -0.13523066 0.01933842 -0.09474698 0.06289148
-0.3646791 0.1490966 0.029434873 -0.097844414 0.014175377 -0.013641181 -0.122053064 -0.055643342
0.07975224 -0.013251841 -0.013948303 0.004514253 -0.053593423 -0.03104091 -0.07176932 0.13338056
-0.0025286647 0.01266642 0.06859994 0.085456245 0.11781122 0.060328912 -0.10278695 -0.05770982
-0.01971014 -0.021192633 -0.044071596 -0.0096365865 0.037269097 -0.05926434 -0.016372167 0.0854911
0.1884408 0.024948925 0.109126665 -0.048608635 -0.1025738 0.04996656 0.014934182 -0.007071757
0.04784799 -0.0067341425 -0.001973429 -0.08589556 0.013627402 0.0058078854 0.035932817 0.03345704
0.044249285 -0.018407933 -0.27061433 0.22850338 0.313693 -0.036506712 0.41937792 0.2899154
-0.11747683 0.35396114 0.27513242 -0.12428045 -0.0063174344 -0.08778977 -0.098780856 -0.08045119
-0.1514021 0.06553214 -0.23006842 0.017439775 -0.36168835 0.26308733 0.04634879 0.12983926
0.09977009 -0.31337795 0.36879727 0.29028273 -0.10570102 -0.16892487 0.035918932 0.07517341
0.27367908 -0.1883478 -0.003118327 0.0086865295 0.09110272 0.088296734 0.034381866 -0.066275276
0.06281331 0.15493596 0.06670967 0.30627805 0.21758148 -0.13072552 0.38696653 0.059865348
-0.09830724 0.022879956 0.080971666 -0.16069429 -0.040216234 0.04858714 -0.3369422 -0.2456574
-0.060912453 0.29820293 -0.35689545 -0.020325635 -0.37333095 -0.29209068 -0.1327111 0.008424025

layers.3.bias f4 [4]
00000000: 0000 0000 0000 0000 0000 0000 0000 0000
0.0 0.0 0.0 0.0

layers.3.weight f4 [4, 4]
00000000: 0000 803f 0000 0000 0000 0000 0000 0000
00000010: 0000 0000 0000 803f 0000 0000 0000 0000
00000020: 0000 0000 0000 0000 0000 803f 0000 0000
00000030: 0000 0000 0000 0000 0000 0000 0000 803f
1.0 0.0 0.0 0.0 0.0 1.0 0.0 0.0
0.0 0.0 1.0 0.0 0.0 0.0 0.0 1.0
