POLAR_Express_Benchmarks/cora/neural networks/nn_1_relu.onnx (onnx, 2733 bytes, 5 tensors)

layers.0.bias f4 [20]
0.5013552 0.48024267 0.49556512 0.26137432 0.44001928 -0.14414316 -0.051560152 0.44742906
-0.067414 -0.09165908 0.5015137 0.38199827 -0.16079266 0.31384623 6.5246363e-06 0.4152863
-0.07591786 0.49084932 -0.18546717 0.44724125
00000000: d058 003f 5ee2 f53e b6ba fd3e dbd2 853e
00000010: 354a e13e 449a 13be bd30 53bd 6c15 e53e
00000020: 5a10 8abd c1b7 bbbd 3463 003f 4795 c33e
00000030: d5a6 24be 74b0 a03e 33ee da36 68a0 d43e
00000040: d37a 9bbd 9a50 fb3e 1beb 3dbe cefc e43e

layers.0.weight f4 [20, 2]
0.046109617 -0.37163335 0.044053175 -0.3557511 0.045546476 -0.36728022 0.023040358 -0.19078735
0.040137023 -0.3255068 -3.1321095e-38 4.7001837e-38 5.363895e-38 -4.2784422e-38 0.04085852 -0.33108258
0.0 0.0 4.1744558e-38 3.821971e-38 0.046128277 -0.3717526 0.034500424 -0.281847
-6.0315714e-38 1.625486e-38 0.027964475 -0.23048568 8.967249e-07 -4.174022e-06 0.037730098 -0.30688933
-5.4233367e-38 -2.696072e-38 0.045088682 -0.36372966 2.1662536e-38 3.6687078e-38 0.040838923 -0.33093432
00000000: 70dd 3c3d ba46 bebe 1a71 343d 0225 b6be
00000010: f18e 3a3d 270c bcbe 22bf bc3c c25d 43be
00000020: b866 243d d4a8 a6be 3c87 2a81 00e7 7f01
00000030: e404 9201 c8f0 6881 435b 273d a883 a9be
00000040: 0000 0000 0000 0000 6c47 6301 8016 5001
00000050: 01f1 3c3d 5b56 bebe 5150 0d3d 404e 90be
00000060: eb31 a481 f0ff b000 c115 e53c 7004 6cbe
00000070: 77b6 7035 930e 8cb6 e08a 1a3d 9920 9dbe
00000080: 24a3 9381 c2c9 1281 e9ae 383d c63a babe
00000090: 56e2 eb00 53be 4701 b746 273d 3970 a9be

layers.1.bias f4 [20]
0.0020129248 1.3965557e-07 0.080814056 0.0003259197 -0.15203094 -0.15403521 -0.17128989 -0.16217038
-0.19859847 0.0023468824 -0.13806142 0.08975306 0.0016892535 0.0022757722 -0.1715397 0.0017575135
0.0017332463 -0.13775173 -0.12916131 0.0019503685
00000000: 46eb 033b 3bf4 1534 d781 a53d 34e0 aa39
00000010: 00ae 1bbe 68bb 1dbe 9e66 2fbe fe0f 26be
00000020: 665d 4bbe 27ce 193b f95f 0dbe 74d0 b73d
00000030: f169 dd3a 1f25 153b 1aa8 2fbe 5e5c e63a
00000040: 182e e33a ca0e 0dbe dd42 04be 82a3 ff3a

layers.1.weight f4 [20, 20]
0.25583565 0.24501519 0.25287005 0.1327382 0.22439712 1.432358e-38 -5.70637e-37 0.22819862
-2.2258956e-37 5.687337e-37 0.2559179 0.19460778 4.1505662e-37 0.15964356 2.5523927e-06 0.21169515
3.3563197e-37 0.2504518 3.7070914e-37 0.22809963 -5.4641838e-08 -5.4103722e-08 -5.7241998e-08 -3.938941e-08
-5.2282843e-08 -9.806928e-38 1.2001168e-38 -5.360208e-08 -1.0281706e-37 -1.0876049e-37 -5.4720232e-08 -5.129668e-08
-6.085384e-38 -4.7677783e-08 -2.4655143e-12 -5.0084278e-08 -2.2507284e-37 -5.454527e-08 -4.139961e-37 -5.3610172e-08
0.5393319 0.51651454 0.53307796 0.27964815 0.473036 -1.6732826e-37 -4.2601523e-37 0.48105234
-4.2719353e-37 0.0 0.5395058 0.41022632 3.5515567e-37 0.33646697 6.5793447e-06 0.44625327
1.4663779e-37 0.5279789 6.168995e-36 0.4808434 0.08836458 0.08463486 0.087343365 0.046010736
0.07751527 4.870917e-37 0.0 0.07882896 -2.279305e-37 -1.749029e-37 0.08839324 0.067216486
3.803078e-37 0.05518714 1.2483467e-06 0.07312466 -3.2622385e-37 0.08650975 5.060629e-38 0.07879461
-3.5298818e-37 -5.7312802e-37 3.5434152e-37 -5.0681665e-37 -4.929227e-37 5.7813884e-37 2.9344365e-37 4.2195693e-37
7.080008e-38 -1.5459264e-37 2.711791e-37 -3.2845728e-37 5.642397e-37 -1.2943011e-37 -2.0864735e-37 -1.8520332e-37
4.6483855e-37 1.2358006e-37 -8.273714e-36 -1.8535512e-37 5.5957605e-37 8.4887836e-38 2.1063673e-37 -3.0542778e-37
4.6925284e-37 -8.501783e-38 5.059447e-37 3.0593744e-37 1.3726922e-37 5.281124e-37 5.6443127e-37 -3.470924e-37
5.3822085e-37 2.966379e-37 5.245342e-37 7.7144687e-38 -4.779783e-37 -2.01873e-37 3.8712715e-37 -5.6073283e-37
-5.34888e-37 5.986697e-38 -2.4863203e-37 -5.504198e-37 3.3526694e-37 5.1032187e-37 -5.763849e-37 -5.8423904e-37
3.1245575e-37 -6.4935184e-38 5.787839e-37 -3.2999153e-37 -2.4576188e-37 -5.797157e-37 3.273281e-20 2.5562025e-37
-1.0831212e-37 -1.3697278e-37 1.3854891e-37 5.29777e-37 4.8440224e-37 -6.6072635e-38 -1.9773025e-37 9.0462717e-38
-3.6711598e-37 9.025492e-38 1.503461e-37 -1.8283299e-37 -4.1873094e-37 3.4728239e-37 -1.2770726e-37 -5.439742e-38
-3.4468875e-37 1.4088857e-38 3.4100049e-37 -1.4238955e-37 5.941846e-37 -4.172751e-37 -5.1498593e-37 -3.8375507e-37
-3.5561778e-37 -4.7826635e-37 3.8839446e-37 -2.471209e-38 -3.30789e-37 -0.0002486779 0.0 5.5071092e-37
-8.766801e-38 5.344955e-37 5.6748087e-38 -2.1337166e-37 2.505015e-37 -4.4961282e-37 -1.7072246e-37 -3.717561e-37
-5.257e-37 -2.323144e-37 9.242458e-36 2.1354981e-37 0.3308008 0.31680712 0.32696527 0.17156747
0.2901433 5.291799e-37 -4.2797915e-37 0.29505944 -5.1490454e-37 -2.5504906e-37 0.33090714 0.2516192
-1.0136217e-37 0.20638949 3.6846766e-06 0.2737167 2.1156602e-38 0.32383797 -4.0403887e-37 0.29493138
4.137446e-37 1.8638319e-37 4.8345833e-37 1.8031684e-37 -5.4382326e-37 6.764922e-38 -3.9169745e-38 1.4436468e-37
-3.2723848e-37 -5.386977e-37 -3.0894447e-37 0.0 -2.6702426e-38 4.861669e-37 3.573887e-37 -4.4327277e-37
-2.370605e-37 -2.2394043e-36 5.6449342e-37 3.6976545e-37 0.5254594 0.5032293 0.5193671 0.27245674
0.46086916 1.8221772e-37 3.7424669e-37 0.46867964 -4.8738044e-37 2.2796451e-37 0.5256291 0.39967492
5.396057e-37 0.32781333 6.415296e-06 0.43477553 -4.9326518e-37 0.5143987 2.5167672e-36 0.46847597
0.20893323 0.20009889 0.20651202 0.10844193 0.18326415 4.3033513e-37 5.1322285e-37 0.18636812
-5.232748e-37 1.7368487e-37 0.20900045 0.15894213 2.7190984e-37 0.13040039 2.1483988e-06 0.17289357
00000000: e4fc 823e 43e5 7a3e 2f78 813e 86ec 073e
00000010: 5cc8 653e 50f8 9b00 7e2d 4283 e6ac 693e
00000020: 927c 9782 b187 4103 ac07 833e 4347 473e
00000030: 883c 0d03 9a79 233e c649 2b36 9dc6 583e
00000040: 566b e402 383b 803e a44a fc02 f392 693e
00000050: 56af 6ab3 ac5f 68b3 3eda 75b3 1d2d 29b3
00000060: 988d 60b3 287c 0582 60ae 8200 1c38 66b3
00000070: 84f2 0b82 8009 1482 8805 6bb3 4c51 5cb3
00000080: f0a8 a581 47c6 4cb3 c27e 2dac 3f1c 57b3
00000090: 382d 9982 2945 6ab3 26e0 0c83 0241 66b3
000000a0: a811 0a3f 4c3a 043f cc77 083f 0b2e 8f3e
000000b0: c631 f23e 64c1 6382 29f7 1083 7e4c f63e
000000c0: ce5d 1183 0000 0000 0d1d 0a3f 2f09 d23e
000000d0: d8b4 f102 6645 ac3e 24c4 dc36 4f7b e43e
000000e0: d097 4702 a029 073f 3433 0305 1b31 f63e
000000f0: 7df8 b43d 0b55 ad3d 14e1 b23d c175 3c3d
00000100: 53c0 9e3d acbf 2503 0000 0000 1471 a13d
00000110: 181f 9b82 c410 6e82 8407 b53d cca8 893d
00000120: 7b69 0103 e90b 623d de8c a735 62c2 953d
00000130: 3604 de82 062c b13d 70c3 8901 125f a13d
00000140: 373b f082 7e06 4383 0027 f102 f575 2c83
00000150: a0bb 2783 ffba 4403 18b5 c702 a295 0f03
00000160: 74bc c001 ac6b 5282 108e b802 5489 df82
00000170: 3600 4003 d02b 3082 7fff 8d82 f015 7c82
00000180: 262d 1e03 5e35 2802 62f6 2f85 d54a 7c82
00000190: f369 3e03 3016 e701 185a 8f02 06dd cf82
000001a0: b0ad 1f03 c870 e781 002a 2c03 d235 d002
000001b0: 58d7 3a02 14b5 3303 e610 4003 0638 ec82
000001c0: a625 3703 9ce1 c902 607d 3203 0002 d201
000001d0: c8a5 2283 3d63 8982 88bb 0303 b8ce 3e83
000001e0: 5103 3683 30f9 a201 cf35 a982 544c 3b83
000001f0: bd2b e402 4ea7 2d03 3522 4483 66ce 4683
00000200: 78a5 d402 38c5 b081 30f3 4403 a294 e082
00000210: c241 a782 5c44 4583 8a93 1a1f 54f7 ad02
00000220: 446d 1382 0c70 3a82 4095 3c02 1646 3403
00000230: 63d5 2403 e8dd b381 7891 8682 5043 f601
00000240: a0d8 f982 80b2 f501 f8a3 4c02 00dc 7882
00000250: 9c7c 0e83 2059 ec02 7cd3 2d82 7815 9481
00000260: 4095 ea82 006a 9900 aa12 e802 84cf 4182
00000270: c730 4a03 cafd 0d83 9a3d 2f83 c895 0283
00000280: 5b05 f282 e0be 2283 ee29 0403 a08b 0681
00000290: 921f e182 fc60 82b9 0000 0000 b065 3b03
000002a0: b0a7 ee81 20e1 3503 a57b 9a01 9636 9182
000002b0: 847b aa02 cdfe 1883 1860 6882 0c01 fd82
000002c0: eee2 3283 e01a 9e82 ba90 4405 a055 9102
000002d0: b95e a93e 8b34 a23e fe67 a73e 62af 2f3e
000002e0: aa8d 943e 1212 3403 3ea2 1183 0812 973e
000002f0: 8336 2f83 d093 ad82 a96c a93e 3bd4 803e
00000300: 90f7 0982 c457 533e 4346 7736 9824 8c3e
00000310: 0060 e600 17ce a53e c07c 0983 3f01 973e
00000320: 3dca 0c03 10b1 7d02 2983 2403 406f 7502
00000330: b00d 3983 a028 b801 a842 5581 c07f 4402
00000340: fcb4 de82 304f 3783 b841 d282 0000 0000
00000350: c061 1181 1c6f 2503 e539 f302 81d6 1683
00000360: c455 a182 e881 3e84 5016 4003 3aa6 fb02
00000370: 8284 063f a3d3 003f 3ef5 043f 737f 8b3e
00000380: 0bf7 eb3e 9c05 7802 f8b2 fe02 c7f6 ef3e
00000390: d3d8 2583 0525 9b02 a18f 063f 31a2 cc3e
000003a0: 499e 3703 26d7 a73e f942 d736 e69a de3e
000003b0: 75d9 2783 a2af 033f 561a 5604 15dc ef3e
000003c0: 98f2 553e b9e6 4c3e e377 533e cd16 de3d
000003d0: 99a9 3b3e 7a6f 1203 04a4 2e03 49d7 3e3e
000003e0: aa0f 3283 5868 6c02 3704 563e bac1 223e
000003f0: 600d b902 ae87 053e 362d 1036 030b 313e

layers.2.weight f4 [1, 20]
0.2639805 -2.9941173e-08 0.5566553 0.09114627 -5.692416e-38 2.1959432e-38 -3.353286e-38 2.1311737e-38
-5.271806e-38 0.34135625 -2.4205365e-38 0.5423398 0.2155736 0.31377536 3.8432673e-38 0.22949377
0.22049645 5.1215805e-38 4.3217323e-38 0.2562206
00000000: 7428 873e ab98 00b3 f680 0e3f e5aa ba3d
00000010: 5af6 9a81 f61d ef00 fc91 3681 7410 e800
00000020: 2083 8f81 3fc6 ae3e 5bc9 0381 c8d6 0a3f
00000030: 53bf 5c3e 2aa7 a03e 543f 5101 6a00 6b3e
00000040: d2c9 613e 356c 8b01 284c 6b01 592f 833e
