POLAR_Express_Benchmarks/cora/neural networks/nn_2_relu_tanh.onnx (onnx, 2733 bytes, 5 tensors)

layers.0.bias f4 [20]
00000000: 4167 04be 8d38 223d 9f49 1f3f 027b eb3e
00000010: 2b89 bb3e e536 d13d 9ff4 8b3e 7c83 5c3e
00000020: 1009 4a3e a713 923e 0ca5 33bd 1e03 0bbc
00000030: 8638 9a3e 9f69 ae3e 8eea 913e e34a 733e
00000040: 1e0b 7ebd de5e ffbd 9839 893e b9ff af3e
-0.12930013 0.039604712 0.6222171 0.45992285 0.36628088 0.102155484 0.2733507 0.21534532
0.1973002 0.2853062 -0.043858573 -0.00848463 0.3012125 0.34064957 0.28499264 0.23759036
-0.06202232 -0.12469266 0.26801753 0.34374788

layers.0.weight f4 [20, 2]
00000000: 04e8 f881 e208 5c81 bbb8 3ebc 86b0 acbb
00000010: 5907 223d 34c1 8d3c 510e ddbd f5f8 3fbd
00000020: 1a34 07be 8ac5 6abd 6b15 fbbc c686 5cbc
00000030: 81fa ef3d 8763 503d 16b1 913c ecad 003c
00000040: 96e0 9c3d c158 083d 6050 b53d fa84 1d3d
00000050: 685b 6b81 48c0 0f82 6a44 ed81 dd67 8601
00000060: 64a3 943d 7b36 013d 3132 d93d 10a2 3c3d
00000070: 122f babd b9bb 21bd 9640 d1bd edbd 35bd
00000080: 42c7 ef01 a01a a001 0000 0000 648e 0d01
00000090: 660a 14bd a5b2 81bc cc28 85bd 539f e7bc
-9.143374e-38 -4.0413991e-38 -0.011640723 -0.0052700667 0.03955779 0.01730404 -0.10793746 -0.046868283
-0.13203469 -0.057317294 -0.030649861 -0.013459867 0.11717702 0.050876167 0.017784636 0.007853966
0.07660024 0.033287767 0.08853221 0.038456894 -4.3228264e-38 -1.0561163e-37 -8.715822e-38 4.937286e-38
0.07257727 0.031546097 0.106052764 0.046052992 -0.09091009 -0.039485667 -0.10217397 -0.04437058
8.8080655e-38 5.881292e-38 0.0 2.599977e-38 -0.03614273 -0.015832255 -0.06501922 -0.028274214

layers.1.bias f4 [20]
00000000: 22ed 053f 2d4e bc3e a039 9cbd 5366 f73e
00000010: 2565 023f 6269 9ebd 8fc0 1fbd 47c3 cb3e
00000020: 7c73 f83e 1bab 173e 7bee b33e bcf0 033f
00000030: d6df 783e b60e 033f 498a 11bc e719 533e
00000040: 1aa2 6fbd 372e 75bd abf8 eb3e 2c77 df3e
0.5231496 0.36778393 -0.076281786 0.48320255 0.50935584 -0.07734944 -0.039001998 0.39797422
0.48525608 0.14811365 0.35142884 0.51539207 0.24304137 0.5119432 -0.008883067 0.2061535
-0.0585042 -0.059858527 0.46088156 0.43645608

layers.1.weight f4 [20, 20]
00000000: 7c80 1a05 a8cf 23bd c84d 0b3e 0066 bcbe
00000010: e6a5 e6be fd21 d6bd 1923 cd3e b2c4 793d
00000020: 090c 863e 0600 9b3e 7a90 e484 9809 e984
00000030: dd2a 7e3e d0b7 b93e d0b9 9ebe 6c7e b2be
00000040: 437d d404 9e54 e404 d306 fcbd b4bc 62be
00000050: 7c0f 6f05 43c5 0b3d ba69 ebbd 92c7 a03e
00000060: 19b3 c43e e7ae b63d 4f82 aebe 3f6f 53bd
00000070: fa08 64be a9cb 83be 2db4 e804 2f85 8584
00000080: fd05 58be d5ea 9dbe 2164 873e 4232 983e
00000090: 36fa ab84 afa3 ac04 056d d73d 369a 413e
000000a0: b4dd be04 08de e904 1bc0 5985 87d7 0685
000000b0: e40e 2d83 cdec 0385 4551 f904 f3ae 4184
000000c0: e63d 2605 0825 7b04 58bf e384 dd20 d984
000000d0: 4980 2a05 34d5 8d04 154e e41a 0144 ae04
000000e0: c2e7 e904 a480 dc84 527b f104 bec9 bc04
000000f0: ad1f cb84 6d05 f8bc 9756 d13d 549a 8ebe
00000100: 2882 aebe ee14 a2bd 24f0 9a3e 9cfb 3b3d
00000110: 4d7a 4a3e aa0d 6a3e 3c19 de84 317e e904
00000120: e0d6 3f3e 6e37 8c3e 1d39 70be 740b 87be
00000130: baf2 bc04 9d6b c184 0e02 bfbd dcb3 2bbe
00000140: 0668 a984 40c1 5d3d bd33 3abe 8e2c ff3e
00000150: 350b 1c3f 66ed 103e 2e52 0abf a45e a7bd
00000160: 2abe b4be b6e7 d0be 5608 f004 f08c 6284
00000170: 0d2f abbe 674f fabe 94d2 d63e 8772 f13e
00000180: 4d3f bc84 0c6d 4105 f308 2b3e d7a7 993e
00000190: ea4e 0905 eeaa 9d84 6929 0185 839f 7b03
000001a0: f904 2505 db9d a104 5b63 d684 5582 8c04
000001b0: 433d 0005 f4d7 dd04 af53 a684 8972 7d04
000001c0: 13f7 6004 377e fa84 ea00 a204 0b8a c703
000001d0: 51fa 0485 1490 a504 ccbb ab04 7cbc d884
000001e0: 34bc cd04 9808 dd04 30f5 b884 7882 0385
000001f0: 1f32 1e85 f3af e504 1060 4105 0b83 9d04
00000200: a473 5284 5526 9f04 7f29 9604 f3d1 c504
00000210: 0e3a ae84 1250 1004 e759 d784 ddb3 bd84
00000220: 49c1 ab04 f1fb eb84 7f81 7904 fa8e eb04
00000230: ac96 1105 0dc8 393d e084 1bbe 65d6 d53e
00000240: d4ba 023f 0bd4 f23d 388f e7be 03d9 8bbd
00000250: a846 97be a9d5 aebe 68eb f504 a1da de84
00000260: 2c3e 8fbe 0a7e d1be b9fa b33e 1241 ca3e
00000270: 68a2 ab04 4a49 5d04 bc63 0f3e 77c7 803e
00000280: b4ff 2084 e63b fbbc f610 d43d 6172 90be
00000290: dbc3 b0be 232e a4bd 19f2 9c3e 556b 3e3d
000002a0: a319 4d3e d016 6d3e d959 4d84 8baa 4084
000002b0: 9953 423e ed08 8e3e 9e56 73be 6aca 88be
000002c0: 8e6e d004 db39 eb84 4a79 c1bd b3eb 2dbe
000002d0: 361b 3904 41d3 1dbc 4acd 043d c70e b5bd
000002e0: 0d92 ddbd 0fea cdbc 0fa8 c43d e647 6e3c
000002f0: f578 803d 4a85 943d de5b 3085 9e87 6a85
00000300: 3971 733d 2bf7 b13d 7f82 98bd 8e77 abbd
00000310: 4d79 5785 71ce 4484 c28f f2bc f503 5abd
00000320: 668a bc04 dae3 283d 7710 0dbe 3553 c23e
00000330: 9f90 ed3e e4a3 dc3d 354b d2be a9c3 7dbd
00000340: b260 89be dbc3 9ebe 1a2e be84 a02c 0705
00000350: bf10 82be 563d bebe c489 a33e 24c2 b73e
00000360: 2cc5 5a05 774e d704 7e56 023e 6012 6a3e
00000370: caa5 eb04 db75 1dbd 14a4 053e 6415 b5be
00000380: 10ab ddbe ecd1 cdbd e90f c53e 1ab9 6f3d
00000390: 7fc4 803e 5ee2 943e c8fa cc84 cc76 e684
000003a0: 661f 743e fb63 b23e b88d 98be 148b abbe
000003b0: 70b3 d304 196a ed04 0f52 f2bd baf5 59be
000003c0: b677 c784 0036 b23c 981c 96bd e0f8 4c3e
000003d0: 69c7 7a3e 62e6 683d 8880 5ebe 8fd1 06bd
000003e0: 4360 11be 720c 28be 7a96 1105 b170 ee84
000003f0: f7b6 09be 7959 49be d898 2c3e d20b 423e
7.264644e-36 -0.03999296 0.1360389 -0.3679657 -0.45048445 -0.104557015 0.4006584 0.0609786
0.26181057 0.30273455 -5.3735223e-36 -5.4786847e-36 0.24821039 0.3627305 -0.3100114 -0.34862077
4.9955995e-36 5.368025e-36 -0.12305989 -0.22142297 1.124057e-35 0.03412367 -0.11494775 0.3140226
0.3841789 0.08920079 -0.34083793 -0.051619764 -0.2226905 -0.25741318 5.4708403e-36 -3.139046e-36
-0.21096034 -0.30843225 0.2644358 0.29725844 -4.043169e-36 4.0587325e-36 0.10518841 0.18906483
4.4872387e-36 5.498194e-36 -1.0238575e-35 -6.340236e-36 -5.0857224e-37 -6.203084e-36 5.8614253e-36 -2.2767374e-36
7.8166514e-36 2.9521912e-36 -5.3543165e-36 -5.1046635e-36 8.016924e-36 3.3344737e-36 9.442474e-23 4.0969655e-36
5.4990873e-36 -5.183989e-36 5.677208e-36 4.438386e-36 -4.775416e-36 -0.030276025 0.10221594 -0.27852118
-0.34083676 -0.07914148 0.30261338 0.04589425 0.19773217 0.22856775 -5.2215123e-36 5.4893925e-36
0.18734312 0.2738604 -0.23459287 -0.26375926 4.4421497e-36 -4.547291e-36 -0.09326564 -0.1676783
-3.982724e-36 0.054139376 -0.18183799 0.4983868 0.609546 0.1415306 -0.54031646 -0.08172348
-0.35301334 -0.4080178 5.6431384e-36 -2.6630888e-36 -0.33434334 -0.48888704 0.41957533 0.4715769
-4.425672e-36 9.094845e-36 0.16702633 0.30010864 6.456203e-36 -3.7067497e-36 -6.073157e-36 7.394538e-37
7.759176e-36 3.7995885e-36 -5.0402402e-36 3.3033533e-36 6.029783e-36 5.2155172e-36 -3.9103264e-36 2.9792599e-36
2.6444524e-36 -5.8890628e-36 3.8086856e-36 1.1727862e-36 -6.252586e-36 3.892363e-36 4.037437e-36 -5.095445e-36
4.8368106e-36 5.1964742e-36 -4.348336e-36 -6.183554e-36 -7.43833e-36 5.3999225e-36 9.09246e-36 3.7030867e-36
-2.4738481e-36 3.7415923e-36 3.530294e-36 4.6507285e-36 -4.096052e-36 1.6963885e-36 -5.062882e-36 -4.4598865e-36
4.037941e-36 -5.5479606e-36 2.9329271e-36 5.5379538e-36 6.845541e-36 0.0453568 -0.15187407 0.41765133
0.5106633 0.1185685 -0.45226455 -0.06828501 -0.29546094 -0.34147385 5.781541e-36 -5.2392728e-36
-0.2797712 -0.40916473 0.35152224 0.3950277 4.0351053e-36 2.6012078e-36 0.1400289 0.2515218
-1.8925323e-36 -0.03066821 0.103547975 -0.28212264 -0.34524426 -0.080166124 0.30653456 0.04648908
0.20029311 0.23153234 -2.413889e-36 -2.2647801e-36 0.18977202 0.27741185 -0.2376351 -0.2671693
4.9002093e-36 -5.5301366e-36 -0.09446962 -0.16984443 2.175914e-36 -0.009632886 0.03242234 -0.08840709
-0.108188726 -0.025136022 0.09602367 0.014543509 0.06273071 0.07251985 -8.2923536e-36 -1.1027536e-35
0.05943415 0.08689722 -0.07446765 -0.083724126 -1.0131531e-35 -2.3134483e-36 -0.029609565 -0.05322643
4.4325686e-36 0.04123292 -0.13775812 0.37954107 0.463994 0.10773447 -0.41073003 -0.061954174
-0.26831585 -0.310088 -4.4711123e-36 6.355866e-36 -0.254034 -0.3715617 0.31941044 0.35890305
1.02865255e-35 5.0618316e-36 0.12728307 0.22858572 5.5400488e-36 -0.038442474 0.13050872 -0.35367882
-0.43294573 -0.10049805 0.384887 0.058526136 0.25149915 0.29078954 -4.8190476e-36 -5.4181838e-36
0.23840103 0.34841904 -0.29795623 -0.33504546 4.977065e-36 5.5815868e-36 -0.11832058 -0.21285143
-4.6894612e-36 0.021754265 -0.073296726 0.20016813 0.24490131 0.056860335 -0.21728718 -0.032914694
-0.14196877 -0.16410998 6.8455054e-36 -5.6057022e-36 -0.13448702 -0.19663037 0.1685518 0.18949822

layers.2.weight f4 [1, 20]
00000000: f808 02bf 2f7a dd3e c389 5304 d78e c4be
00000010: 5ca0 2f3f 3f72 b882 87c6 8583 e515 133f
00000020: 341a c7be 3681 f9bd 219e 053f fae0 f9be
00000030: 6e32 8d3e 9473 f8be d27c 1f83 4ad5 8e3e
00000040: 9678 a483 32a7 8403 09b0 173f 08df d6be
-0.50794935 0.4325728 2.4866188e-36 -0.38390228 0.68604064 -2.7101944e-37 -7.862617e-37 0.57455283
-0.3888718 -0.12182848 0.5219441 -0.48804456 0.27577537 -0.4852568 -4.6869187e-37 0.27897102
-9.666739e-37 7.796649e-37 0.59252983 -0.41967034
