POLAR_Express_Benchmarks/cora/neural networks/nn_2_relu.onnx (onnx, 2733 bytes, 5 tensors)

layers.0.bias f4 [20]
0	0x3dadfca3	0.08495452
1	0x3f4ca930	0.7994566
2	0x3f6e93aa	0.9319407
3	0x3ef4638c	0.47732198
4	0x3edb0759	0.42779043
5	0x3eea2e5e	0.457385
6	0x3f068459	0.52545696
7	0x3d383929	0.044976387
8	0x3f15a0ee	0.58448684
9	0x3f340262	0.70316136
10	0x3f167584	0.58773065
11	0x3f83549a	1.0260193
12	0x3eed140b	0.46304354
13	0x3ee62af3	0.44954643
14	0x3f4c3847	0.7977337
15	0x3f7f0073	0.9961006
16	0x3d36252c	0.044469044
17	0xb977e2d1	-0.00023640251
18	0x3ee720ea	0.451423
19	0x3e0512da	0.12995473

layers.0.weight f4 [20, 2]
0	0x3e245812	0.16049221
1	0x3d91f78d	0.07127295
2	0xbbe05fed	-0.0068473727
3	0xbb22d0c6	-0.0024843677
4	0xbc052b38	-0.00812798
5	0xbb4375b5	-0.0029824798
6	0xbc089581	-0.008336426
7	0xbb4b59ad	-0.0031028793
8	0xbbf6d1a8	-0.007532317
9	0xbb36fdca	-0.0027922266
10	0xbba0add5	-0.004903535
11	0xbae5e6ae	-0.0017540061
12	0xbbc6e28b	-0.0060694865
13	0xbb0f99ea	-0.0021911808
14	0x3daf0914	0.085466534
15	0x3d1acc7c	0.037792668
16	0xbbca6387	-0.0061764154
17	0xbb123e60	-0.002231501
18	0xbbea6f84	-0.007154407
19	0xbb2c4575	-0.0026286517
20	0xbbfa2e1f	-0.0076348926
21	0xbb37ce76	-0.0028046644
22	0xbc19ee55	-0.009395202
23	0xbb6451c9	-0.0034838787
24	0xbbf9aceb	-0.0076194904
25	0xbb38bc64	-0.0028188461
26	0xbbc9e83b	-0.006161717
27	0xbb127f84	-0.0022353837
28	0xbbf09455	-0.0073419013
29	0xbb2f0721	-0.002670713
30	0xbc187c7c	-0.009307023
31	0xbb621262	-0.003449582
32	0xb9d094fd	-0.00039783856
33	0x380a37c8	3.2953714e-05
34	0x81b03390	-6.472618e-38
35	0x8204d7d0	-9.759764e-38
36	0xbbc0a4e6	-0.0058790324
37	0xbb0de1d5	-0.00216495
38	0x3e7a9afe	0.24473187
39	0x3ddeec95	0.10884968

layers.1.bias f4 [20]
0	0x3f1d62a1	0.6147862
1	0x3eec356c	0.46134508
2	0x00000000	0.0
3	0xbd59c205	-0.053163547
4	0x3d937a54	0.072010666
5	0x3f7ebe90	0.99509525
6	0x3f581430	0.84405804
7	0x3ebcb7c8	0.36858964
8	0x3fa18c3e	1.2620924
9	0xbd37d302	-0.044878967
10	0x3ec98fb9	0.39367464
11	0x3ec273fb	0.3797911
12	0x3d4022b8	0.04690811
13	0x3e37e21f	0.17957352
14	0x3eac94dd	0.33707324
15	0x3ece9818	0.40350413
16	0x3eb5f22c	0.35536325
17	0x3f532b99	0.824884
18	0x3ea2fb25	0.31832233
19	0x3ea1ff08	0.31639886

layers.1.weight f4 [20, 20]
0	0xbf92a70a	-1.1457226
1	0x3d56e9cb	0.052469056
2	0x3d7ed63c	0.06221603
3	0x3d760671	0.060064737
4	0x3d5ec5b1	0.054387752
5	0x3d168a67	0.036753085
6	0x3d38b600	0.045095444
7	0xbf1ba46e	-0.60797775
8	0x3d3db795	0.046317656
9	0x3d5c9586	0.053853534
10	0x3d660734	0.056159213
11	0x3d929fe9	0.07159407
12	0x3d618020	0.05505383
13	0x3d387476	0.04503294
14	0x3d649574	0.055806592
15	0x3d90f2ab	0.07077535
16	0x3b378165	0.002800071
17	0xa144fe51	-6.674397e-19
18	0x3d32643c	0.043552622
19	0xbfdfce2a	-1.7484791
20	0xbf8ca923	-1.0989116
21	0x3d4e9572	0.05043549
22	0x3d750d0b	0.059826892
23	0x3d6dfb78	0.058101147
24	0x3d56d084	0.05244495
25	0x3d1098a4	0.03530182
26	0x3d31b420	0.04338467
27	0xbf154103	-0.58302325
28	0x3d36636d	0.044528414
29	0x3d53fc12	0.051754065
30	0x3d5d6d3c	0.054059252
31	0x3d8d06a2	0.06886031
32	0x3d59aa52	0.053140946
33	0x3d320125	0.043458123
34	0x3d5bbaf0	0.053645074
35	0x3d8b6540	0.06806421
36	0x3b2faa05	0.002680422
37	0xae200526	-3.638436e-11
38	0x3d2b5998	0.04183349
39	0xbfd6a81e	-1.6770055
40	0x04f330eb	5.717395e-36
41	0x8729a321	-1.2762086e-34
42	0x046f9900	2.816457e-36
43	0x871605c1	-1.1286437e-34
44	0x05eb6326	2.2135715e-35
45	0x872690cd	-1.2531005e-34
46	0x87092f3f	-1.0320619e-34
47	0x87261ab4	-1.2496299e-34
48	0x8728105b	-1.2643722e-34
49	0x060d422c	2.6567768e-35
50	0x85c0f170	-1.8144283e-35
51	0x8723d693	-1.2325815e-34
52	0x86fe427d	-9.5641877e-35
53	0x86539133	-3.9791365e-35
54	0x07280893	1.2641435e-34
55	0x871c1cc4	-1.1744589e-34
56	0x0629c416	3.1929428e-35
57	0x06e46d04	8.592425e-35
58	0x87291589	-1.2720476e-34
59	0x05f45361	2.2976278e-35
60	0x8684b476	-4.9918045e-35
61	0x07256cce	1.2445195e-34
62	0x07060c3f	1.0084638e-34
63	0x1819536b	1.9816902e-24
64	0x070f51f1	1.0782205e-34
65	0x872a09c8	-1.2792253e-34
66	0x871932b5	-1.1525342e-34
67	0x8455c9ae	-2.5130636e-36
68	0x071bbcc5	1.1716378e-34
69	0x07274c8b	1.2586178e-34
70	0x872bf78b	-1.2937357e-34
71	0x87266895	-1.2519186e-34
72	0x89e26226	-5.449982e-33
73	0x8a708c22	-1.1581936e-32
74	0x0718f6f6	1.1507784e-34
75	0x8723ebc4	-1.2332042e-34
76	0x07184aff	1.1457248e-34
77	0x07234b2e	1.228485e-34
78	0x071f0b7f	1.1965209e-34
79	0x0624ea94	3.1017313e-35
80	0x3e706891	0.23477389
81	0xbbcfa9fc	-0.0063374024
82	0xbbf755ca	-0.0075480687
83	0xbc24aa29	-0.010050335
84	0xbc1574cc	-0.009122085
85	0xbba75185	-0.0051061534
86	0xbbd203b7	-0.0064091343
87	0x3dff1938	0.12455982
88	0xbbce250e	-0.0062910384
89	0xbbec54e8	-0.00721227
90	0xbc0950b0	-0.008381054
91	0xbc1226fd	-0.008920428
92	0xbc14185a	-0.009039009
93	0xbbe1e55e	-0.006893798
94	0xbbe644e3	-0.007027255
95	0xbc120df6	-0.008914461
96	0xb9a94bec	-0.00032290758
97	0x2e7e4953	5.781804e-11
98	0xbbd7852b	-0.006577154
99	0x3eb79cfb	0.35861954
100	0x4010f376	2.2648597
101	0xbdbabf8b	-0.09118565
102	0xbddcbd88	-0.10778338
103	0xbdf4aed0	-0.11947405
104	0xbdde0d43	-0.10842373
105	0xbd8c177d	-0.068404175
106	0xbdadab01	-0.08479882
107	0x3f99dd67	1.2020692
108	0xbdaf2d2b	-0.08553537
109	0xbdc95df7	-0.098323755
110	0xbddc26ad	-0.10749564
111	0xbe001fc7	-0.12512122
112	0xbddf00c9	-0.10888822
113	0xbdb21c17	-0.08696764
114	0xbdcac471	-0.099007495
115	0xbdff53ff	-0.12467193
116	0xbba54fc4	-0.005044909
117	0x07551c9e	1.6032749e-34
118	0xbdabb236	-0.083836004
119	0x405d4c0f	3.4577672
120	0xbfd8475c	-1.6896777
121	0x3d9fb21b	0.07797643
122	0x3dbda6b8	0.09260315
123	0x3db87057	0.09005802
124	0x3da6ed74	0.08150759
125	0x3d60ef16	0.05491551
126	0x3d8a0a43	0.067402385
127	0xbf6599b3	-0.8968765
128	0x3d8d9a7f	0.069142334
129	0x3da4cd15	0.08046929
130	0x3dac50d9	0.08413858
131	0x3ddadcca	0.106866434
132	0x3da8d16c	0.08243069
133	0x3d89db51	0.067312844
134	0x3daa504a	0.08316095
135	0x3dd85dbf	0.10564756
136	0x3b872078	0.0041237436
137	0x948e431f	-1.436481e-26
138	0x3d85ca67	0.06532746
139	0xc024fed9	-2.5780547
140	0xbfd9777e	-1.6989591
141	0x3da13f08	0.078733504
142	0x3dbfa1bf	0.093570225
143	0x3dcb565e	0.099285826
144	0x3da9cd87	0.08291154
145	0x3d63f331	0.055651847
146	0x3d8f0013	0.06982436
147	0xbf66d8e7	-0.90174717
148	0x3d912714	0.07087532
149	0x3da6abde	0.0813825
150	0x3dad4cc7	0.0846191
151	0x3ddd5165	0.108065404
152	0x3db106e9	0.08643896
153	0x3d8ba8a2	0.068192735
154	0x3dac2ce4	0.08407
155	0x3ddafa4c	0.106922716
156	0x3b897d39	0.004195836
157	0xb70f7353	-8.550315e-06
158	0x3d885376	0.06656544
159	0xc025fbb2	-2.5934873
160	0xc029cb95	-2.6530507
161	0x3dfeb12e	0.12436138
162	0x3e178665	0.14797361
163	0x3e1457aa	0.14486566
164	0x3e06a27d	0.13147922
165	0x3db4feb9	0.08837647
166	0x3dddfa40	0.10838747
167	0xbfb44da7	-1.4086198
168	0x3de34e32	0.11098899
169	0x3e04b94f	0.12961315
170	0x3e0a56fb	0.13509743
171	0x3e2f59b7	0.17124067
172	0x3e07dbcf	0.13267444
173	0x3ddd87fc	0.108169526
174	0x3e084b96	0.13310084
175	0x3e2d699f	0.16934822
176	0x3bd46aec	0.0064824726
177	0x86dc3d60	-8.2844985e-35
178	0x3dd904e0	0.10596633
179	0xc0818f9d	-4.048781
180	0x072218d2	1.219482e-34
181	0x8720711e	-1.2070304e-34
182	0x87265a9f	-1.2515083e-34
183	0x9eb6024b	-1.9270948e-20
184	0x8717dfb3	-1.1425717e-34
185	0x07213d47	1.2130302e-34
186	0x072a903a	1.2831763e-34
187	0x07030997	9.858163e-35
188	0x8722886c	-1.2227616e-34
189	0x866555f3	-4.3133259e-35
190	0x27385965	2.558359e-15
191	0x870f4c68	-1.0780578e-34
192	0x87173507	-1.1375561e-34
193	0x071aa3de	1.1633829e-34
194	0x108bdb9e	5.5164207e-29
195	0x870f4e0f	-1.0781064e-34
196	0x2d2c8d49	9.80844e-12
197	0x071a08f2	1.1588301e-34
198	0x87024fe0	-9.803586e-35
199	0x86ce502b	-7.7606384e-35
200	0x3f6eea4e	0.9332627
201	0xbd156341	-0.03647161
202	0xbd3105e2	-0.0432185
203	0xbd41394d	-0.047173787
204	0xbd2f1f07	-0.0427542
205	0xbcdcdfbe	-0.026962157
206	0xbd090c73	-0.033459138
207	0x3efd9084	0.4952432
208	0xbd0a7f3b	-0.033812743
209	0xbd1f5bdf	-0.038905974
210	0xbd2db61f	-0.042410012
211	0xbd4d5097	-0.050125685
212	0xbd3038ca	-0.04302291
213	0xbd0cc3c3	-0.03436638
214	0xbd217c3e	-0.039425127
215	0xbd4c1b51	-0.04983074
216	0xbb065c27	-0.0020501704
217	0xa3250a72	-8.94688e-18
218	0xbd06d5dc	-0.032918796
219	0x3fb6628f	1.4248828
220	0xbfb2e3b5	-1.3975741
221	0x3d8411de	0.064487204
222	0x3d9cd1fd	0.076572396
223	0x3d9cbaec	0.0765284
224	0x3d8c6b75	0.06856433
225	0x3d39cc73	0.045360994
226	0x3d653dce	0.055967145
227	0xbf3ded2b	-0.74190015
228	0x3d6af8fb	0.057366353
229	0x3d87f7cc	0.066390604
230	0x3d8fc202	0.07019426
231	0x3db4d12a	0.088289574
232	0x3d8cd252	0.06876053
233	0x3d69fe5a	0.057127334
234	0x3d8cb4f2	0.0687045
235	0x3db2c076	0.08728115
236	0x3b611194	0.0034342753
237	0xb3fdc782	-1.1817521e-07
238	0x3d5d0f9f	0.053969976
239	0xc008882f	-2.133312
240	0x3e62cbd7	0.22148071
241	0xbb6ba1c6	-0.0035954579
242	0xbb8e9840	-0.0043516457
243	0xbc054ded	-0.008136255
244	0xbbf20af3	-0.007386559
245	0xbb613cf0	-0.0034368597
246	0xbb918b4e	-0.0044416552
247	0x3df0a857	0.11750858
248	0xbb882065	-0.0041542524
249	0xbb9ab473	-0.0047212183
250	0xbbc7612d	-0.0060845823
251	0xbbb04e7d	-0.0053804503
252	0xbbeb59f3	-0.0071823536
253	0xbba8ee41	-0.005155355
254	0xbb8a508e	-0.0042210286
255	0xbbb1485b	-0.005410237

layers.2.weight f4 [1, 20]
0	0x3eb79c93	0.35861644
1	0x3eb012ec	0.34389436
2	0x83868e22	-7.908444e-37
3	0x8432887a	-2.0986466e-36
4	0xbd964004	-0.07336429
5	0xbf356341	-0.70854574
6	0x3f076d10	0.5290079
7	0x3f082ad3	0.53190345
8	0x3f54a0ab	0.8305766
9	0x840c8820	-1.6519426e-36
10	0xbe9583ff	-0.29202268
11	0x3edffc16	0.43747014
12	0xbd8d9c90	-0.069146276
13	0xbe0a2007	-0.1348878
14	0x3f178e2a	0.592013
15	0x3f14488e	0.5792321
16	0x3f1b454a	0.606526
17	0xbf0ff7f8	-0.56237745
18	0xbe81b12b	-0.2533048
19	0x3ef0e7dd	0.47051898
