POLAR_Express_Benchmarks/cora/neural networks/nn_2_tanh.onnx (onnx, 2733 bytes, 5 tensors)

layers.0.bias f4 [20]
-0.0013899344 0.049375597 -0.007064223 -0.035638385 0.0009712553 -0.008485804 -0.47554037 -0.036942635
0.0010559408 -0.00961338 0.048963577 0.0045441985 0.0060015162 -0.004791552 -0.0065761004 0.4965285
0.063979864 0.10568582 -0.0022991789 -0.043433033
00000000: 762e b6ba 113e 4a3d ff7a e7bb 8ef9 11bd
00000010: d79b 7e3a 0b08 0bbc 077a f3be 2951 17bd
00000020: 7e67 8a3a 7081 1dbc 088e 483d 80e7 943b
00000030: 5ea8 c43b 7402 9dbb 547c d7bb fc38 fe3e
00000040: e007 833d cf71 d83d d2ad 16bb d6e6 31bd

layers.0.weight f4 [20, 2]
-0.035859592 -0.016129304 -0.010356883 -0.0046945335 -0.013342565 -0.006033375 -0.008261099 -0.0037565373
0.027358577 0.012319201 0.029235946 0.01315879 -0.0019376863 -0.00090456265 -0.011473451 -0.0051953727
-0.018529827 -0.008360665 -0.017216371 -0.0077702673 -0.0037945681 -0.0017704974 -0.020700175 -0.009334334
-0.021721058 -0.00979039 -0.021593751 -0.009734539 0.014059516 0.006354414 0.00022465613 0.00013068486
-0.0077961413 -0.0035473802 0.0037348594 0.0017408306 -0.031826526 -0.014321252 0.009227047 0.004187907
00000000: 82e1 12bd 9a21 84bc eaaf 29bc 9ad4 99bb
00000010: c69a 5abc 9eb3 c5bb 9059 07bc 3d30 76bb
00000020: 181f e03c 79d6 493c 3980 ef3c f797 573c
00000030: f7f9 fdba 2c20 6dba 24fb 3bbc f23d aabb
00000040: ddcb 97bc 2cfb 08bc 5909 8dbc ba9d febb
00000050: 4aae 78bb 0910 e8ba 6a93 a9bc 09ef 18bc
00000060: 5cf0 b1bc df67 20bc 61e5 b0bc 9e7d 1fbc
00000070: e259 663c b038 d03b ac91 6b39 7308 0939
00000080: c676 ffbb 2a7b 68bb 8bc4 743b 952c e43a
00000090: 885c 02bd afa3 6abc 0a2d 173c b63a 893b

layers.1.bias f4 [20]
0.07296942 0.2891981 -0.0019023082 0.28738457 0.0035835663 -0.03667477 0.10808479 -0.18775925
0.23397495 0.034928173 -0.032598 0.10589344 0.034751248 0.06801069 -0.8841149 0.78020805
-0.036186643 -0.12685657 -0.012237723 -0.5326376
00000000: fe70 953d c611 943e df56 f9ba 1224 933e
00000010: 44da 6a3b 4938 16bd 8f5b dd3d f643 40be
00000020: 2197 6f3e d810 0f3d 7b85 05bd a9de d83d
00000030: 5357 0e3d 3049 8b3d 5b55 62bf b7bb 473f
00000040: 7238 14bd b0e6 01be bb80 48bc f05a 08bf

layers.1.weight f4 [20, 20]
0.90897584 0.2072107 0.20815769 0.17516737 -0.7221063 -0.7695486 0.1463269 0.3515358
0.55164194 0.22415604 0.09886511 0.49354663 0.41025907 0.5729277 -0.2961263 -0.051704675
0.07728827 -0.0011082581 0.8276116 -0.32734782 0.1654993 0.043662407 0.23469855 0.051866412
0.10961457 -0.087079175 0.19689305 0.17172255 0.20388633 0.028544206 0.006463359 0.35913867
0.28510356 0.10571763 0.4278478 -0.24869509 0.2346049 0.2435372 -0.29279765 -0.014050041
0.8887084 0.28932148 0.36303213 0.19869643 -0.7523787 -0.8010328 0.039283834 0.31936258
0.4429224 0.45146903 0.11407249 0.5990544 0.5500308 0.4698126 -0.4394936 -0.02090957
0.21794881 -0.10317164 0.7950182 -0.26757827 2.7838976 0.77441573 1.0301633 0.64965934
-2.1287448 -2.0970912 0.38581023 0.9495325 1.4516621 1.3683157 0.29917723 1.6435486
1.6690187 1.7209674 -1.111501 -0.36749247 0.5673002 -0.29145238 2.4313362 -0.69259876
1.5395187 0.45533732 0.60131204 0.36734986 -1.1081166 -1.3193097 0.17095579 0.54098135
0.8364484 0.65235656 0.16705666 0.911965 0.6828018 1.0237361 -0.623277 0.07617556
0.3633473 -0.14503132 1.3777546 -0.42212984 1.7894285 0.52933717 0.7601651 0.4408808
-1.4480438 -1.5339074 0.47964978 0.5369583 0.8892942 0.8194931 0.14719483 1.1115732
1.1143198 1.1546191 -0.28893277 0.37744886 0.78495985 -0.011339149 1.6424681 -0.31474006
2.1643753 0.5562858 0.806062 0.51552093 -1.6548247 -1.7951323 0.23801923 0.7450894
1.1639025 1.0832561 0.23950316 1.271136 1.1101668 1.3593321 -0.7885255 -0.055093553
0.34496233 -0.22149698 1.916428 -0.40204334 2.084563 0.62929505 0.59204656 0.47976092
-1.5857117 -1.7057226 -0.20510714 0.7347673 1.096746 0.9491749 0.16769607 1.2311482
1.2677792 0.8888207 -0.8509636 0.053391557 0.40390092 0.10165816 1.7901332 -0.29293314
0.30251724 0.17202723 -0.092552595 0.25930768 -0.56651 -0.38540584 -0.033302605 0.11501746
-0.36009422 0.42059824 0.04648283 0.766041 0.09980496 -0.43097848 -0.22053546 -0.44679385
0.20915301 -0.20318682 0.7631057 -0.10410474 -0.6791513 -0.18287832 -0.18108116 -0.2009507
0.6649152 0.64709973 0.12267169 -0.38745534 -0.36303586 -0.6610349 -0.08388981 -0.398575
-0.52590066 -0.17816414 0.2985802 0.08934604 -0.16763584 0.04073879 -0.6121417 0.2953207
2.2155294 0.7137672 0.6639047 0.51002103 -1.6637615 -1.7814684 0.13858874 0.21876228
1.1340306 0.85582143 0.2649201 1.3022164 1.3602113 1.3892744 -0.8951066 -0.035312176
0.70854694 -0.16344278 1.9833091 -0.68151426 -2.7341185 -0.8279881 -1.0880603 -0.66917056
2.223617 2.271698 -0.06161161 -0.970246 -1.5250267 -1.408332 -0.31754184 -1.7116345
-1.771651 -1.7800422 1.1105148 -0.15708464 -0.6111856 0.3262064 -2.5552642 0.7410399
0.5642746 0.24958785 0.33993393 0.17379904 -0.2561775 -0.4712997 -0.087289356 -0.11655475
-0.2987177 -0.0981301 0.066012405 0.4215274 0.5489436 0.718162 -0.16923538 -0.15949526
00000000: a4b2 683f 0b2f 543e 4a27 553e 135f 333e
00000010: f5db 38bf 2301 45bf b8d6 153e 80fc b33e
00000020: 6838 0d3f 2989 653e ca79 ca3d 25b2 fc3e
00000030: 7a0d d23e 64ab 123f de9d 97be 48c8 53bd
00000040: 5049 9e3d f942 91ba 5bde 533f 229a a7be
00000050: a678 293e 5ad7 323d d154 703e e071 543d
00000060: 9b7d e03d 9156 b2bd 559e 493e 09d8 2f3e
00000070: 94c7 503e 8ad5 e93c 96ca d33b 06e1 b73e
00000080: 18f9 913e 7c82 d83d de0e db3e eda9 7ebe
00000090: 443c 703e d161 793e 93e9 95be 2532 66bc
000000a0: 6582 633f f221 943e 59df b93e 1477 4b3e
000000b0: e49b 40bf 7c10 4dbf 16e8 203d 7e83 a33e
000000c0: bac6 e23e f326 e73e d69e e93d a15b 193f
000000d0: d2ce 0c3f 478b f03e 4e05 e1be 8c4a abbc
000000e0: f92d 5f3e a74b d3bd 5086 4b3f 0500 89be
000000f0: 612b 3240 1c40 463f 64dc 833f 1350 263f
00000100: 5b3d 08c0 be36 06c0 eb88 c53e 9014 733f
00000110: 10d0 b93f f824 af3f c22d 993e cd5f d23f
00000120: 68a2 d53f a948 dc3f aa45 8ebf f927 bcbe
00000130: 963a 113f 3f39 95be 039b 1b40 274e 31bf
00000140: f30e c53f f921 e93e 96ef 193f 4815 bc3e
00000150: c4d6 8dbf 24df a8bf 090f 2f3e c17d 0a3f
00000160: 7b21 563f d700 273f e710 2b3e 8a76 693f
00000170: 19cc 2e3f c909 833f 158f 1fbf ef01 9c3d
00000180: a808 ba3e 1783 14be 435a b03f 6721 d8be
00000190: fe0b e53f a482 073f 2e9a 423f 21bb e13e
000001a0: 8059 b9bf 1457 c4bf a894 f53e 1976 093f
000001b0: c9a8 633f 4dca 513f 3eba 163e 0848 8e3f
000001c0: 08a2 8e3f 8fca 933f ffee 93be fa40 c13e
000001d0: 21f3 483f d7c7 39bc 653c d23f 9c25 a1be
000001e0: 2085 0a40 bf68 0e3f 145a 4e3f 2ef9 033f
000001f0: 4cd1 d3bf e5c6 e5bf 50bb 733e 2ebe 3e3f
00000200: c2fa 943f 23a8 8a3f 5140 753e 96b4 a23f
00000210: f219 8e3f 98fe ad3f cfdc 49bf c7a9 61bd
00000220: e79e b03e 1bd0 62be 834d f53f a0d8 cdbe
00000230: 7b69 0540 7b19 213f 5d90 173f 39a3 f53e
00000240: 9af8 cabf 1e55 dabf 9b07 52be b619 3c3f
00000250: 2c62 8c3f 20fd 723f 85b8 2b3e 4496 9d3f
00000260: 9746 a23f c189 633f c0d8 59bf 1bb1 5a3d
00000270: 1acc ce3e 2732 d03d 1623 e53f 55fb 95be
00000280: 8ae3 9a3e e827 303e 378c bdbd fac3 843e
00000290: cd06 11bf ea53 c5be 5068 08bd 468e eb3d
000002a0: 455e b8be a758 d73e c864 3e3d 431b 443f
000002b0: 8b66 cc3d 36a9 dcbe 0cd4 61be 2ac2 e4be
000002c0: 352c 563e 3510 50be e55a 433f de34 d5bd
000002d0: dcdc 2dbf 7444 3bbe 576d 39be 05c6 4dbe
000002e0: e237 2a3f 54a8 253f 4c3b fb3d 8c60 c6be
000002f0: d6df b9be 9539 29bf 6cce abbd 0612 ccbe
00000300: 6da1 06bf a970 36be 81df 983e 0efb b63d
00000310: bba8 2bbe b8dd 263d 52b5 1cbf 4634 973e
00000320: 3ccb 0d40 72b9 363f a9f5 293f bd90 023f
00000330: 23f6 d4bf 2807 e4bf 35ea 0d3e 3803 603e
00000340: ea27 913f 1d17 5b3f 9ba3 873e 07af a63f
00000350: 671b ae3f bed3 b13f b525 65bf 80a3 10bd
00000360: 5563 353f 8b5d 27be 13dd fd3f b877 2ebf
00000370: ccfb 2ec0 07f7 53bf 8f45 8bbf c34e 2bbf
00000380: be4f 0e40 8063 1140 755c 7cbd 0b62 78bf
00000390: 1334 c3bf 3944 b4bf d894 a2be d716 dbbf
000003a0: 76c5 e2bf 6cd8 e3bf 5925 8e3f ccda 20be
000003b0: a976 1cbf 8604 a73e 7389 23c0 cab4 3d3f
000003c0: 4d74 103f f593 7f3e d20b ae3e 60f8 313e
000003d0: b329 83be 324e f1be c3c4 b2bd 42b4 eebd
000003e0: 87f1 98be 6ff8 c8bd 8331 873d 70d2 d73e
000003f0: 9187 0c3f 77d9 373f 0a4c 2dbe ba52 23be

layers.2.weight f4 [1, 20]
0.33744517 0.035973642 0.35667413 1.0590533 0.5887136 0.6825667 0.8124845 0.76393056
0.16565685 -0.2851904 0.8215421 -1.0950589 0.20290534 1.1879112 -0.0015870611 0.018882092
0.4972761 -0.27945694 0.73834646 0.007656037
00000000: 9dc5 ac3e 1959 133d fe9d b63e 0f8f 873f
00000010: efb5 163f b1bc 2e3f fcfe 4f3f f490 433f
00000020: f3a1 293e 7a04 92be 9550 523f e42a 8cbf
00000030: 6bc6 4f3e 790d 983f ef04 d0ba 9eae 9a3c
00000040: f99a fe3e fb14 8fbe 4604 3d3f 7edf fa3b
