POLAR_Express_Benchmarks/cora/neural networks/nn_3_relu_sigmoid.onnx (onnx, 2736 bytes, 5 tensors)

layers.0.bias f4 [20]
000000 06 0e e3 3e 3d 21 97 3e 91 ca b0 3e 63 03 c5 3e
       0.44346637 0.29517546 0.34529546 0.38479146
000010 3f 2a 11 3f bc 82 ac 3e 7c 19 80 3e 2e 4b b3 3e
       0.5670509 0.33693492 0.25019443 0.35018295
000020 4c 17 8f 3e 98 72 a2 3e f6 5e bd 3e 2c 4d 26 3f
       0.27947462 0.31728053 0.36986512 0.64961505
000030 c6 5b 97 3e 4c 39 8c bd 20 3b df bd 6d 55 90 3e
       0.29562205 -0.06846866 -0.10899949 0.28190175
000040 c0 51 83 3e 97 d6 a6 3e 8f e6 6a 3e 1f f2 87 3e
       0.25648308 0.32585594 0.22939514 0.2655191

layers.0.weight f4 [20, 2]
000000 c7 de 09 3d d6 d7 88 3d 50 58 ba 3d ca b3 38 3e
       0.033659723 0.066817924 0.090988755 0.18037334
000010 5e 12 0f 3d ea 00 8e 3d fa 28 4e 3d b8 92 cc 3d
       0.034929626 0.06933768 0.050332047 0.09988922
000020 c5 3b 69 bc d8 2f e8 bc 13 38 0a bd fe 25 89 bd
       -0.014235442 -0.028343126 -0.033744883 -0.066966996
000030 34 36 4c bd fd 9b ca bd 90 4d 9c 3d bb f7 1a 3e
       -0.04985638 -0.09893034 0.076319814 0.15133564
000040 e9 5c a9 bd 54 e5 27 be 12 08 47 bd e8 7c c5 bd
       -0.08269674 -0.16396075 -0.04859168 -0.096429646
000050 f9 9c 7e bc 5e f4 fc bc e1 4f ba bc 3f d2 38 bd
       -0.015540355 -0.030878242 -0.022743167 -0.04512238
000060 23 a5 b3 bd f0 12 32 be da 45 2e 83 d7 23 da 02
       -0.08771732 -0.17390037 -5.121419e-37 3.2052792e-37
000070 56 50 8e 02 d4 8e d5 82 5a cb 5f bd 79 f7 dd bd
       2.0911135e-37 -3.1379516e-37 -0.05463729 -0.10838217
000080 fb 69 5e 3d 16 a2 dc 3d 35 c5 73 3d e1 c3 f1 3d
       0.05430029 0.10773103 0.059514243 0.11804939
000090 3a 5f 45 3d 4f e2 c3 3d 1b 58 91 3d 6e 1d 10 3e
       0.04818652 0.09564649 0.07096883 0.14073727

layers.1.bias f4 [20]
000000 fd 96 af bd 04 95 b2 bc 33 1c 25 3f 96 5a ee 3e
       -0.085737206 -0.021799572 0.64496154 0.46553487
000010 be 6b 37 bd bd f5 d9 bc f3 b9 7e bd 69 f4 d8 bc
       -0.044780485 -0.026606435 -0.062189054 -0.026483731
000020 82 c0 20 3f b2 11 0d 3f af ca d0 96 26 e8 3b 3f
       0.62793744 0.55105126 -3.3732124e-25 0.73401105
000030 d7 b0 22 3f 80 8f 3e 3f a5 a2 ca 3e fd 78 0c be
       0.63551086 0.74437714 0.39577213 -0.13718028
000040 51 fe 00 bd ed cd 0b 3f c5 e9 1b 93 11 8b 47 3f
       -0.031492535 0.5461109 -1.9679008e-27 0.77946573

layers.1.weight f4 [20, 20]
000000 50 2b 6a 85 23 b2 09 85 1d 29 96 04 dc b4 db 04
       -1.10105824e-35 -6.4744276e-36 3.5302587e-36 5.1652746e-36
000010 60 19 5c 04 72 46 7c 85 b8 cd ad 82 10 ec f2 04
       2.5872527e-36 -1.1861922e-35 -2.5538142e-37 5.7110716e-36
000020 f8 ac 98 84 00 11 86 05 2c 5a 40 04 f2 ce 05 05
       -3.5893875e-36 1.2607544e-35 2.2610896e-36 6.29164e-36
000030 d1 f0 26 85 8d a8 31 85 f5 29 0a 85 ee d6 56 05
       -7.8495135e-36 -8.353458e-36 -6.496435e-36 1.0101708e-35
000040 bc fa 8b 05 12 e0 a5 04 e3 7e ac 04 b7 a4 ae 05
       1.3163602e-35 3.899709e-36 4.0553533e-36 1.6423388e-35
000050 82 25 96 85 f9 84 a9 85 52 8a 63 84 98 0c 39 04
       -1.411971e-35 -1.594153e-35 -2.6747235e-36 2.1752428e-36
000060 fd 22 00 85 cc 9a 5c 04 fd b2 a9 85 88 5c 59 85
       -6.0249574e-36 2.5931955e-36 -1.5958434e-35 -1.0220286e-35
000070 54 a9 fa 03 28 b6 21 04 52 cf ab 05 08 c2 f2 04
       1.4732555e-36 1.9009101e-36 1.615692e-35 5.7072116e-36
000080 74 0e 4e 83 7f 13 8f 05 19 86 90 05 88 04 13 84
       -6.055455e-37 1.3454817e-35 1.3590955e-35 -1.7281848e-36
000090 65 1b 85 05 38 8b 16 04 18 3b 93 85 05 be 92 85
       1.2517323e-35 1.7696341e-36 -1.3845521e-35 -1.3799576e-35
0000a0 a1 28 24 3e dd 22 de 3e ea 64 2a 3e 18 fc 75 3e
       0.16031124 0.43385974 0.16640058 0.24021947
0000b0 ae 7a 8a bd 59 3d 24 be c9 52 73 be 98 62 ba 3e
       -0.067616805 -0.16039027 -0.23762049 0.36403346
0000c0 02 c2 c9 be cc 24 6d be f6 12 97 bd 8e a4 dc bd
       -0.3940583 -0.23158568 -0.073766634 -0.10773574
0000d0 8c fe d5 be 83 08 82 03 a3 89 95 85 8f 55 85 be
       -0.41795766 7.6426675e-37 -1.4062452e-35 -0.2604184
0000e0 61 ae 84 3e 3a 67 91 3e 64 80 6b 3e 4f 58 ad 3e
       0.2591429 0.28399068 0.22998196 0.33856437
0000f0 f3 05 0d 3e 55 ab be 3e 3b 57 12 3e 4e 38 53 3e
       0.137718 0.3724009 0.14291088 0.20626947
000100 cd e1 6c bd 7e ce 0c be 99 b1 50 be c8 00 a0 3e
       -0.057832528 -0.13750646 -0.20380248 0.31250596
000110 ba 12 ad be ba 5f 4b be 3b 5d 81 bd b8 e6 bc bd
       -0.3380335 -0.19860736 -0.063166104 -0.092236936
000120 4f 92 b7 be bc c1 0d 85 92 34 b4 05 68 b7 64 be
       -0.35853812 -6.6653715e-36 1.694643e-35 -0.22335589
000130 c1 c9 63 3e cf a8 79 3e 6d 2b 4a 3e 2d cc 94 3e
       0.22244932 0.24380802 0.19743128 0.29062024
000140 55 d3 a0 05 25 fb 2a 85 47 df a6 85 73 5e 05 05
       1.5123959e-35 -8.0394896e-36 -1.5692584e-35 6.2709775e-36
000150 cf a7 da 84 85 8e 46 05 dd 9e 34 85 24 12 08 85
       -5.140566e-36 9.336092e-36 -8.492738e-36 -6.398021e-36
000160 ec 5e 46 05 7b b5 53 05 6a ca 8b 85 2c e9 4d 04
       9.32735e-36 9.954505e-36 -1.3145852e-35 2.4204701e-36
000170 d5 c3 1b 05 76 76 a4 04 25 7c b0 04 b8 8c 0b 05
       7.3240336e-36 3.8665004e-36 4.149141e-36 6.5615945e-36
000180 94 5e fa 02 f0 cd 52 05 62 e0 ae 04 e7 22 5b 85
       3.6788484e-37 9.911977e-36 4.1113266e-36 -1.0303741e-35
000190 72 44 8a 05 66 76 aa 05 98 ec b0 05 7d 39 2d 85
       1.30026e-35 1.6030216e-35 1.6637871e-35 -8.14498e-36
0001a0 c7 f7 86 04 a6 c8 4b 85 20 b0 2b 85 74 e5 3c 85
       3.1730796e-36 -9.5818674e-36 -8.0727304e-36 -8.8818614e-36
0001b0 3e b8 91 05 fa c0 3c 05 aa b6 d6 04 d8 f5 06 05
       1.3703414e-35 8.875162e-36 5.047891e-36 6.345804e-36
0001c0 14 4b be 04 a4 ba 0d 84 a8 6b aa 85 c6 de 35 05
       4.4737734e-36 -1.6660172e-36 -1.602627e-35 8.551496e-36
0001d0 0e 7a 10 85 30 40 b8 05 17 13 0a 85 a2 6a 01 83
       -6.7932654e-36 1.7326856e-35 -6.492235e-36 -3.80321e-37
0001e0 41 f8 94 05 30 e0 2b 04 d8 1b 2c 05 5b 8a 5b 05
       1.4009047e-35 2.0203895e-36 8.092515e-36 1.03227424e-35
0001f0 1d 7d 4b 84 e7 cc 93 83 00 b0 da 80 0a 5a b8 05
       -2.3919985e-36 -8.686927e-37 -2.0083275e-38 1.7336352e-35
000200 88 bd 16 04 db 58 1e 04 9c 28 7f 85 b6 72 1a 85
       1.7719444e-36 1.8613611e-36 -1.1997501e-35 -7.262114e-36
000210 fe 48 85 05 86 97 46 04 96 21 17 05 0c 7a 56 04
       1.2534073e-35 2.3344364e-36 7.106155e-36 2.521162e-36
000220 4d 3b 67 05 5b 3e 22 84 05 f5 52 05 94 f9 c2 04
       1.08724596e-35 -1.907164e-36 9.9191555e-36 4.5838382e-36
000230 d8 c6 05 05 ea 69 31 85 98 24 1d 85 a5 ab 50 05
       6.290152e-36 -8.341953e-36 -7.388826e-36 9.811639e-36
000240 ac 85 dd 84 4e a2 39 04 8c 9b 21 84 d6 ac 3a 84
       -5.207961e-36 2.1821172e-36 -1.8996883e-36 -2.1943557e-36
000250 af 45 17 05 03 63 30 05 6f 65 e0 04 8c 8c 71 84
       7.112785e-36 8.293666e-36 5.27553e-36 -2.839395e-36
000260 c1 62 55 84 bc f4 1c 85 d1 56 12 85 6f 4f cf 84
       -2.5083375e-36 -7.380035e-36 -6.880833e-36 -4.8738414e-36
000270 16 0d 8d 84 b6 dd 06 84 f2 11 26 03 a6 55 8b 05
       -3.316096e-36 -1.5853429e-36 4.8803616e-37 1.310296e-35
000280 e7 f3 2a 3e ba 55 e7 3e 62 72 31 3e 90 15 80 3e
       0.16694604 0.45182592 0.1732879 0.2501645
000290 fb 3a 90 bd e7 0c 2b be 24 69 7d be 4f 1a c2 3e
       -0.070425 -0.1670414 -0.24747139 0.37910697
0002a0 92 1e d2 be 9d f9 76 be 06 59 9d bd 2d cc e5 bd
       -0.41038948 -0.24118657 -0.076829955 -0.11220584
0002b0 c9 dc de be b2 71 34 05 b7 94 01 05 2f dc 8a be
       -0.4352782 8.484442e-36 6.0928655e-36 -0.27121112
0002c0 a0 2c 8a 3e 78 6c 97 3e 32 40 75 3e c3 85 b4 3e
       0.2698717 0.29574943 0.2395027 0.35258302
0002d0 44 fb d2 bd d3 b6 8e be 41 ff da bd c6 0e 1e be
       -0.10301831 -0.2787386 -0.10693217 -0.15435323
0002e0 f1 bd 31 3d df e3 d2 3d ed 3e 1c 3e 58 80 6f be
       0.043394033 0.10297369 0.1525838 -0.23388803
0002f0 c9 93 81 3e 94 47 18 3e 4c e1 41 3d b9 a8 8d 3d
       0.25308064 0.14871055 0.047334 0.06916947
000300 66 6f 89 3e 76 88 a0 05 28 97 67 05 97 3e 2b 3e
       0.26842803 1.5096456e-35 1.0889331e-35 0.16723095
000310 9b 7f 2a be 7a da 3a be b2 53 17 be ad c0 5e be
       -0.1665024 -0.18247405 -0.14778021 -0.21753187
000320 1e e0 24 05 e9 82 1f 85 5e c1 b6 05 a0 5a 0c 85
       7.752407e-36 -7.5001885e-36 1.718623e-35 -6.5994135e-36
000330 08 ef 6f 04 32 f4 8e 85 20 ea a1 85 80 d9 3c 04
       2.8204073e-36 -1.3443319e-35 -1.5226371e-35 2.2199165e-36
000340 89 87 ab 85 18 86 79 05 3e 31 7f 05 00 e8 1f 05
       -1.613055e-35 1.1732553e-35 1.1999087e-35 7.518756e-36
000350 c0 b1 94 05 40 d8 59 85 e5 7a ab 85 fd 80 0a 04
       1.3983148e-35 -1.024301e-35 -1.6125907e-35 1.628105e-36
000360 f9 19 34 85 95 9b 5b 05 85 73 5c 04 4c d8 98 85
       -8.46833e-36 1.03259064e-35 2.591392e-36 -1.4373466e-35
000370 a0 85 0d be 49 89 bf be 85 e8 12 be 49 16 54 be
       -0.13820505 -0.37409428 -0.14346512 -0.20711626
000380 c4 fc 6e 3d 61 a1 0d 3e fe cf 51 3e 07 b5 a0 be
       0.058346525 0.13831092 0.20489499 -0.31388113
000390 ea f8 ad 3e 24 7e 4c 3e fb 4c 82 3d bc 5d be 3d
       0.3397897 0.19969994 0.06362339 0.09295222
0003a0 45 86 b8 3e d6 71 df 04 4d b4 8a 83 bb f1 65 3e
       0.3603994 5.253159e-36 -8.152306e-37 0.22455494
0003b0 c7 ce 64 be 01 be 7a be bd 0f 4b be 24 77 95 be
       -0.22344504 -0.24486543 -0.19830222 -0.2919246
0003c0 ee 3b f4 bd 2b 3e a5 be 9f 85 fd bd 1f fd 36 be
       -0.11925493 -0.32273993 -0.12379002 -0.17869996
0003d0 87 fe 4d 3d b8 47 f4 3d da f5 34 3e 36 a6 8a be
       0.050291564 0.11927742 0.1767191 -0.27079934
0003e0 2b 0f 96 3e df 5e 30 3e 42 a9 60 3d f3 20 a4 3d
       0.29308447 0.1722369 0.054848917 0.08014097
0003f0 79 29 9f 3e e8 0d b0 84 0c 3b e7 84 01 54 46 3e
       0.3108633 -4.1390172e-36 -5.4362065e-36 0.19367982

layers.2.weight f4 [1, 20]
000000 c0 58 b6 84 81 e3 9f 04 99 17 39 bf 33 da 1e bf
       -4.28695e-36 3.758965e-36 -0.7230163 -0.62051696
000010 ca 7e 93 04 49 e1 a2 84 2e 56 a8 84 86 74 98 04
       3.467597e-36 -3.829291e-36 -3.9575754e-36 3.5842038e-36
000020 37 c2 40 bf 83 a6 ed 3e ef 26 2d 84 3d 86 1f 3f
       -0.7529635 0.464161 -2.035393e-36 0.62314206
000030 88 9a 09 3f ea 9e 21 3f d6 d6 aa 3e 8d 6b c6 04
       0.5375142 0.6313311 0.33367032 4.6648346e-36
000040 08 80 90 04 20 82 37 bf 05 e7 a7 04 46 c1 29 3f
       3.3971815e-36 -0.7168293 3.947367e-36 0.66310537
