POLAR_Express_Benchmarks/cora/neural networks/nn_5_relu_tanh.onnx (onnx, 83712 bytes, 7 tensors)

layers.0.bias f4 [100]
00000000: 212d 383e b384 583e d07b 053f 4d3c d53a
00000010: fb10 493e 9db5 7abd 7470 723e 1490 d238
00000020: 4474 373b fc17 443e 87b5 823e 3d0f cfbd
00000030: 61f4 4d3e 2d7d 28bd 0878 7a3e 8af8 123e
00000040: 328c 5e3e d084 b13d 66a8 be3e 283c 8d3e
00000050: df36 a5bd ae6c 643e c5f0 873d d6e9 963e
00000060: 3fd2 023f e9e7 3b3e 2d01 1f3e 17f1 94bd
00000070: 0796 5c3e 0601 8b3d 74de 09be 4a0a 9d3e
00000080: 69fe 443e ffad 263e 1d1a 983e aba7 dc3e
00000090: 3ce9 b0bd e712 4a3e 6e9b b93e 9ede 13ba
000000a0: 7df0 1a3e 93f6 b33c 32ad 6b3d f371 a93e
000000b0: 58a9 9a3c 8d4b 99bd 2256 083e c441 bc3d
000000c0: 6c65 d6bd 608b 993e e05f 343e 41cf 463e
000000d0: 6fd6 9f3e 0955 963e 3876 bcbd 425c 913e
000000e0: ccdb 1e3d 1380 b23e 1ef9 893e e32c 893e
000000f0: 58de 2b3e 92b7 d93d e88e 8b3e 2be3 5f3e
00000100: f075 d43d 6064 7a3d d12b f8bc 46e8 f93b
00000110: 4c5a 31bd 986e d63c ce2c 933e ce74 933e
00000120: 813d 9b3d 8be4 9e3e c3f5 28bd d212 8e3e
00000130: 4b00 f7bc 50b7 463e 3a90 113f 77c2 7c3e
00000140: 3688 31bd c6a4 093e 76a4 c23d d184 913c
00000150: 816c 52bd e5dc 133d fd79 463d 2bf0 1a3e
00000160: c9da e33d 25f6 fd3d 2d2d 693e 84df 8e3e
00000170: d6b6 8f3e 45a2 f93d 3ece ba3c 5b63 283e
00000180: 65fd 85bd 052b e33d a860 ea3d 5391 b23e
0.17985965 0.2114437 0.5214205 0.0016268581 0.19635384 -0.061208356 0.2367571 0.00010040417
0.0027992884 0.19149774 0.2552912 -0.10110328 0.20112754 -0.041135002 0.24459851 0.14352623
0.21733168 0.0866791 0.37237853 0.27584958 -0.080671065 0.22307083 0.0663772 0.29475278
0.5110206 0.18350185 0.15527792 -0.07272547 0.21541606 0.067873046 -0.13463765 0.30671912
0.19237675 0.16277312 0.29707423 0.4309667 -0.08638236 0.19733773 0.36251396 -0.00056407775
0.15130801 0.021968162 0.05753822 0.3309475 0.018879578 -0.07485113 0.13314107 0.09192231
-0.104685634 0.29989147 0.17614698 0.19414999 0.31218287 0.29361752 -0.09202236 0.283907
0.038783833 0.34863338 0.26947874 0.26792058 0.16784036 0.106307164 0.27257466 0.21864001
0.10374057 0.06113088 -0.03029433 0.007626566 -0.043299004 0.026175782 0.2874512 0.28800052
0.0758009 0.3103374 -0.04125 0.27748734 -0.030151507 0.19405866 0.568607 0.24683557
-0.04334279 0.13441762 0.09504025 0.017763527 -0.05137301 0.036099333 0.04845618 0.1513068
0.11125714 0.12400464 0.2277114 0.27904904 0.2806918 0.121891536 0.022803422 0.16444151
-0.06542472 0.1109219 0.11444217 0.348765

layers.0.weight f4 [100, 3]
00000000: 05c6 063d 60c3 94bd 05f5 b4bd 0480 18bd
00000010: e669 ab3d 3681 d03d 33f5 bb3d 5a03 4fbe
00000020: acd7 7bbe 3e55 a339 2e2b 33ba b15f 5bba
00000030: 1781 123d c6ab a1bd eb8a c4bd 44d9 ab04
00000040: 0b92 5e83 c32e 2a9b 6c65 2bbd b47e bf3d
00000050: 20e4 e83d 18b6 a2b7 764b 3438 8328 5d38
00000060: 908e 0e3a 8812 9fba d366 c0ba 56aa 0e3d
00000070: ac32 9dbd 2b51 bfbd 412f 3bbd 409e ce3d
00000080: 3067 fb3d c35f 212c 19c6 bd81 04cd f600
00000090: 2fff 143d 3636 a4bd 47e7 c7bd 4f0e 8518
000000a0: 7e73 3a83 ef49 7a83 02b4 353d 208d c8bd
000000b0: 38c8 f3bd cb32 d4bc a798 693d 3986 8e3d
000000c0: b0b3 1fbd 5e4a b03d 5d79 d63d 9b3c 823c
000000d0: c287 0fbd ef89 2ebd e66e 883d edfd 16be
000000e0: 9f64 37be 81ed 49bd a6dc de3d 628d 073e
000000f0: caf5 8d83 e3b6 a030 5010 9ca5 8416 263d
00000100: ab87 b7bd 4a07 dfbd 76e9 4b3c c1dc e0bc
00000110: 9882 08bd 2a2e 56bd eab7 ed3d cd8e 103e
00000120: aa35 a9bd dd9c 3a3e be6e 623e dcc3 04bd
00000130: a6f9 943d 172d b53d 5abc e73c a7d2 7fbd
00000140: 16f0 9bbd 5d3a e099 b6f3 3ba4 bcc7 5eab
00000150: 1c4c 1ebd ebbc ae3d 229a d43d 1289 503c
00000160: f369 e6bc 8116 0cbd 0393 c12b 6821 f581
00000170: 8db6 84aa 6ecf 613d b964 f9bd 4375 17be
00000180: dbf9 0e3d 6dfc 9ebd 2057 c1bd a0ec f33c
00000190: 15e8 86bd 0efc a3bd b2e3 5c3d baf2 f3bd
000001a0: 8e4d 14be 049c 9abd ad41 2b3e 233c 503e
000001b0: 0b99 3721 dffe 16a8 b245 2283 4b0f 143d
000001c0: 2185 a3bd d4fb c6bd cd2d 84bd a1dc 113e
000001d0: 8672 313e 7c3c 4c2f 14ff b7a9 d364 272d
000001e0: df2d e13c 2a2d 78bd 6304 97bd 005e 8b3b
000001f0: 0fe4 1abc 9594 3cbc e789 313c 9983 c4bc
00000200: 043e efbc b766 71bd 1733 053e b80e 223e
00000210: 8491 68bb a7f0 013c 515d 1e3c ab32 2f03
00000220: 9f48 6d03 9207 6f27 4bc7 c2bc 7e36 593d
00000230: db2c 843d 80f8 87bc 170a 163d 6b9c 363d
00000240: 790c 280f b45d 89b0 0fe0 fd24 5d42 5bbd
00000250: 7204 f23d 6e37 133e d93d e4bc c0c5 7b3d
00000260: 0338 993d 018b 113d 80c7 a0bd 6085 c3bd
00000270: 4f6b 643d c943 00be 1911 1cbe 9cac 5a3d
00000280: 2474 f1bd 36e5 12be a269 4b98 01f0 d6a7
00000290: 327d 0803 32b5 4fbd fd3f e53d db74 0b3e
000002a0: 7e56 f33b 1fbc 86bc 4fc9 a3bc f7a9 803d
000002b0: 8de0 0dbe 23c0 2cbe fa11 483d 59dd dcbd
000002c0: 905a 06be 6d26 44bd a473 d83d 10b0 033e
000002d0: eb6a fa3c a78b 8abd cc5d a8bd 3d20 9ebc
000002e0: 0297 2e3d e88a 543d 93af 47bd 9e66 dc3d
000002f0: ca14 063e 72f3 1fbd 275a b13d 6aca d73d
00000300: a649 9b3c fd06 2bbd a603 50bd a1f1 133c
00000310: 743a a3bc 9896 c6bc c7ee 7603 d288 8483
00000320: da34 9483 82f3 bdba 36e5 533b f643 803b
00000330: 2d3f 5103 d9de c69b a287 8b03 fdfc a23b
00000340: 7b28 35bc fef7 5cbc e0fd 553d ba38 ecbd
00000350: 5bb6 0fbe 9633 563d c66e ecbd 60f7 0fbe
00000360: c822 563c 2c53 ecbc 38c3 0fbd f352 61bd
00000370: 5488 fa3d a26a 183e 5460 e717 8c70 9e03
00000380: 7eef 5907 c72e 4abd 0e67 e03d 9882 083e
00000390: 134c 8183 eeb1 9603 062c 9603 0fd3 0ebd
000003a0: a6a8 9d3d 71de bf3d f68e c8bd b72e 5d3e
000003b0: d951 863e ce8f 373d 84a5 cabd 3b58 f6bd
000003c0: eb74 c426 9158 9526 c1c6 b6a7 c56b ca3c
000003d0: e6a2 5fbd 5728 88bd 2d96 8dbc 9d4e 1c3d
000003e0: dd53 3e3d 3888 653b 196e ffbb 7861 1bbc
000003f0: 63c8 7283 3e9c ee28 9961 f38e ed5d e23b
0.03290369 -0.07263827 -0.08835796 -0.03723146 0.08369808 0.10180895 0.091776274 -0.20216122
-0.24593991 0.00031153293 -0.00068347424 -0.0008368446 0.03576764 -0.07894091 -0.09596809 4.0401434e-36
-6.5407586e-37 -1.407718e-22 -0.04184477 0.093503386 0.113716364 -1.9396699e-05 4.2985623e-05 5.2728235e-05
0.00054381136 -0.001213626 -0.0014679082 0.034830414 -0.076756805 -0.093416534 -0.04569936 0.100887775
0.12275541 2.2932635e-12 -6.971189e-38 2.2665078e-38 0.036376175 -0.080181524 -0.097609095 3.4394142e-24
-5.4793066e-37 -7.355327e-37 0.044361122 -0.097925425 -0.11903423 -0.025903126 0.057030346 0.06959195
-0.038989723 0.086079344 0.10472367 0.01589804 -0.035041578 -0.042612012 0.06661777 -0.14745302
-0.17909478 -0.049298767 0.10881929 0.13237527 -8.343666e-37 1.1693512e-09 -2.707274e-16 0.040548816
-0.089614235 -0.10890062 0.012445798 -0.027449014 -0.03332767 -0.05229012 0.116073444 0.14116974
-0.08262189 0.18223901 0.22112557 -0.03241335 0.07274179 0.08846491 0.028288055 -0.062456753
-0.07614152 -2.318463e-23 -4.0755592e-17 -7.914743e-13 -0.038646802 0.08532127 0.10380961 0.012727993
-0.028126692 -0.03420115 1.3754279e-12 -9.004672e-38 -2.357458e-13 0.05512946 -0.121774144 -0.14790826
0.03490625 -0.0776299 -0.09440446 0.029775918 -0.06587235 -0.0800706 0.053928085 -0.11911531
-0.1448271 -0.07549289 0.16724272 0.2033544 6.220536e-19 -8.381939e-15 -4.7687528e-37 0.036147397
-0.07984377 -0.09716001 -0.06454048 0.1424432 0.17328843 1.857518e-10 -8.1710815e-14 9.515238e-12
0.027487693 -0.060589947 -0.073738836 0.004253149 -0.0094537875 -0.011510034 0.010836101 -0.023988532
-0.029204376 -0.058935847 0.1300777 0.15825927 -0.0035487125 0.007930911 0.009665803 5.148604e-37
6.9731405e-37 3.3172017e-15 -0.02377667 0.053030483 0.06453868 -0.016597986 0.036630716 0.044582766
8.285442e-30 -9.994694e-10 1.1010083e-16 -0.053530086 0.11817254 0.14376613 -0.027861523 0.061467886
0.074813865 0.035532955 -0.078505516 -0.09546924 0.0557664 -0.12525858 -0.15240897 0.05338727
-0.1178973 -0.1434525 -2.6290466e-24 -5.9657145e-15 4.0110525e-37 -0.05070991 0.111938454 0.13618796
0.007426082 -0.016447125 -0.019993452 0.06282418 -0.1385519 -0.1687017 0.04884527 -0.10784406
-0.13120484 -0.04788821 0.10568932 0.12860131 0.03056856 -0.06764918 -0.08221015 -0.019302482
0.04262448 0.051890284 -0.048751425 0.1076176 0.13093868 -0.039050527 0.08659773 0.10536654
0.018956017 -0.04175471 -0.05078473 0.009029777 -0.019925334 -0.02424173 7.2567006e-37 -7.789675e-37
-8.710792e-37 -0.0014492127 0.0032332665 0.0039143516 6.14921e-37 -3.2900364e-22 8.2008255e-37 0.004974006
-0.011057015 -0.01348686 0.052244067 -0.11534257 -0.14034407 0.05229529 -0.11544566 -0.1405921
0.013069816 -0.028848253 -0.035098284 -0.055010747 0.12233034 0.14884427 1.4952342e-24 9.312245e-37
1.6395646e-34 -0.049361017 0.10957156 0.13331068 -7.599404e-37 8.857058e-37 8.826315e-37 -0.03486925
0.07698183 0.09368599 -0.09792893 0.21599852 0.2623432 0.044814877 -0.09894851 -0.120285474
1.3631923e-15 1.0362958e-15 -5.0730637e-15 0.024709592 -0.05459871 -0.06648319 -0.017283523 0.03816091
0.046466697 0.003502382 -0.007795107 -0.009483688 -7.134744e-37 2.6491067e-14 -5.9998108e-30 0.0069081695

layers.1.bias f4 [100]
00000000: bbc6 a03d d8f3 7cbc 9851 78b9 bfdd 413d
00000010: 7f6e 62bd 905b 56bd a2de af3c 6fb6 42bd
00000020: 4b11 33bd a540 353d 6a69 e63c 619d 5a3d
00000030: ba39 90bc 65f9 583c b6ce 793d 35bd 31bd
00000040: 1d9c 1abd d0ae 0cbd 0ea5 6f3e 79aa 703d
00000050: 1d14 573d be4b 46bd 6c60 24bd 256b f43b
00000060: 00b0 2b3c 5d0b 34bd 3a2a 203e 4130 3fb9
00000070: d48c 613e 81cb b43d ebae f1bc 0f66 0b3c
00000080: 6039 59bd 5a46 333e 2b0f 12bb f6d0 c1bc
00000090: 29ba 903c c25d 60bd 1b4e 563d bc66 07bd
000000a0: f20b 5fbd 810c bc3c 0bec 2abc 460f e63b
000000b0: d0fb cb3d 22c2 bbbc 08e8 023e c312 053e
000000c0: af07 253e f3f7 543d bde4 31bd d121 df3d
000000d0: 061f 71b9 f89f 553d 4692 033e f287 013a
000000e0: 1ab7 463d ac73 003b 9e1c d33b 3e66 0d3d
000000f0: d658 87b9 38b2 25bc e387 8b3d f89c cb3d
00000100: 3f09 9039 f3ec 1ebd 964c df3d b032 2fbd
00000110: 490f 733b ebc6 4d3d 6823 653d 21ef 03bd
00000120: 9c7d 16bd 2c64 03bd 870d 323b 6a3e c0bc
00000130: 5e44 4d3d 1a75 b33d ae72 923b f1ce 923d
00000140: dceb 783a a968 10bd 8e57 dbbc 8feb 6639
00000150: 763b 0b3d ffb0 5338 a8bf 833d ad70 2abd
00000160: 502e f4bc 7b5f 47bc 7922 0dbd 99dd 9b3a
00000170: 8cc3 783d 9395 483d 9820 903d 312c 4c3d
00000180: c1bc ba3d 5fd5 713e e70e 3fb9 39f7 3e3d
0.07850405 -0.015438996 -0.00023681519 0.047330614 -0.05528116 -0.052333415 0.021468464 -0.047537263
-0.043717664 0.044251103 0.028126437 0.053372744 -0.017605651 0.013243054 0.06098815 -0.043393333
-0.037746537 -0.0343464 0.23402807 0.058756325 0.052509416 -0.048412077 -0.040131018 0.0074590617
0.010478973 -0.04395615 0.15641108 -0.00018233155 0.22026378 0.08827878 -0.029502353 0.008508219
-0.053033233 0.17507306 -0.0022286873 -0.02365921 0.017666893 -0.054776914 0.05232058 -0.03305696
-0.05445475 0.022955181 -0.010432254 0.0070208637 0.09960139 -0.022919718 0.12783825 0.12995438
0.16116212 0.051994275 -0.043431032 0.10895122 -0.00022995108 0.05215451 0.12848768 0.0004941217
0.048514463 0.0019600196 0.0064426204 0.034521334 -0.00025815394 -0.010113291 0.06813028 0.09942049
0.0002747271 -0.03880019 0.109032795 -0.04277295 0.0037087968 0.05023853 0.05594197 -0.032210473
-0.036740884 -0.032077953 0.0027168707 -0.023467261 0.05011403 0.0876257 0.0044692373 0.07168377
0.0009495595 -0.03525606 -0.026775148 0.00022022262 0.033992253 5.047116e-05 0.0643304 -0.041611362
-0.02980724 -0.01216876 -0.034456704 0.0011891603 0.060733363 0.04897077 0.07037467 0.04984683
0.09118033 0.23616551 -0.00018220731 0.04662249

layers.1.weight f4 [100, 100]
00000000: 5012 a43a b52c beba aa81 643b e549 4537
00000010: 0539 b23a b9dc 8f00 46ee d3ba c91c 4cb5
00000020: 16e4 ab37 de3b ad3a aef7 e4ba 7ca4 1081
00000030: 7ddb b43a 0a52 fe00 26d1 db3a e453 83ba
00000040: 2aa8 c3ba 471b 213a f896 263b 7d00 f7ba
00000050: 0000 0000 fb51 c93a 6370 f439 d8bb 03bb
00000060: fc2e 4fbb 1562 a5ba f146 8d3a d795 cc80
00000070: 90a0 c1ba 38ad fa39 0000 0000 144c 093b
00000080: b64c af3a 8397 943a 51e1 053b 03f2 3dbb
00000090: d107 0481 d419 b43a 06d9 21bb f4bf d636
000000a0: a42a 893a f111 2a39 f777 db39 0acb 13bb
000000b0: 958f 1eb9 583f 9d00 62ad 73ba c211 2bba
000000c0: 9b2e f700 9d35 06bb e08e 8cba 660d b13a
000000d0: 3d90 0c3b 2b8c 043b 0000 0000 a63e feba
000000e0: 8121 9339 704f 1c3b 4257 f23a f6e7 efba
000000f0: 599a 983a 7fc5 46ba f54a f4ba ff8e c4ba
00000100: 8379 3f3a 4070 b439 1c7b a400 7279 79b8
00000110: 4019 1c81 a161 4139 9da8 013b 2fd6 013b
00000120: bd8d 043a 14d5 0abb 517f 8080 b39d f8ba
00000130: d059 8780 fa2f afba d3dc 75bb 751b de3a
00000140: 401b ed00 e321 783a d49a 31ba a7dc 0439
00000150: dbae db00 50da 8839 4cb7 b639 275e 8aba
00000160: b5e9 4d3a 9522 633a 33b7 cc3a f4f5 fb3a
00000170: d33e fd3a 8656 603a 5ec4 40b9 30e3 933a
00000180: 1c0c 0e81 1ed7 4c3a 3b19 543a c50c 1c3b
00000190: 0000 0000 103b 8d80 d50a e800 4a5c 1a01
000001a0: d0f2 f380 7e72 1b81 8658 1d81 0000 0000
000001b0: 6d30 e080 eaff 0e81 4629 c580 001e c300
000001c0: 0078 c100 f2c9 1b01 556d f980 0000 0000
000001d0: 0000 0080 afac cf00 6fc2 a600 2b26 1301
000001e0: 0000 0000 f88a 8a80 0000 0000 fc26 8880
000001f0: bf05 f000 0000 0080 575d b980 0000 0000
00000200: 348e b180 0b91 8380 8ca6 8f00 781b ec00
00000210: 0000 0000 d613 9680 2b38 b700 4e13 ca80
00000220: 0000 0000 7e1e 0101 2222 ab80 e0b7 74af
00000230: 1dd6 8800 b089 1701 0000 0000 ede9 f600
00000240: 0000 0000 0000 0000 9eb8 a580 4092 1b81
00000250: 0000 0080 2220 0101 803f 1001 3a79 c100
00000260: 0000 0000 e89c 8300 ed12 cf80 0000 0080
00000270: 98f6 eb00 0000 0080 0000 0080 c099 f600
00000280: 8556 8280 0000 0000 b0e5 1781 2651 8700
00000290: eb7d 8980 e0a6 1001 0000 0000 055d 1b01
000002a0: 88db 8b00 3e22 0301 df0a 732e e084 d600
000002b0: 0000 0000 19a3 e580 2c35 fc00 0852 a000
000002c0: 815f 8680 5cde d080 0000 0080 8f4d 8380
000002d0: 0f07 1301 2ffd df00 fb93 b700 531d 1c01
000002e0: 9d76 1981 0000 0000 d484 b700 bff5 0581
000002f0: 0c86 b880 a28e 0a01 255d 1601 c0d2 0901
00000300: 50a2 0b81 d655 bb00 6323 8b00 0000 0000
00000310: 2cd8 0981 2844 0b01 d059 8200 0000 0000
00000320: 0000 0000 db71 8882 b304 bd02 1960 9c82
00000330: 00a6 ce81 0000 0080 5571 2683 0000 0000
00000340: 2209 5b83 00a5 4d81 2604 cc82 3e95 ec00
00000350: 715e 2d83 0000 0000 5062 4201 42ff 55ad
00000360: 68ce 0e1d e01d e300 0000 0080 4916 8502
00000370: d891 da00 9711 a902 5862 092a 7d7c 1683
00000380: 507e c682 0000 0000 18d4 82ae 80c9 cb80
00000390: 80a5 5181 1e77 1806 0000 0000 ae73 9082
000003a0: de3d 9602 fb3d 7883 a084 6701 7eb4 88ac
000003b0: 9754 f880 8d05 bfb2 0000 0000 2ed1 7882
000003c0: 3480 6382 3bdd 4739 40f5 1601 5c65 ec02
000003d0: 0000 0000 d2fc c6b3 0000 0000 8876 2b03
000003e0: 3450 8580 ca32 cd82 ca03 292b ac7b 3fb3
000003f0: e2dc f938 f0b1 8a03 0000 0000 405d af80
0.0012517665 -0.0014509173 0.0034867325 1.175932e-05 0.0013597315 1.3211656e-38 -0.0016169033 -7.603781e-07
2.0491e-05 0.0013216694 -0.0017468834 -2.6566635e-38 0.0013798323 2.3355646e-38 0.0016770705 -0.0010019508
-0.0014927436 0.0006145727 0.0025419574 -0.001884475 0.0 0.0015359515 0.0004662304 -0.0020100977
-0.0031613698 -0.0012617732 0.0010778588 -1.8788194e-38 -0.0014772583 0.00047812774 0.0 0.0020949887
0.0013374302 0.0011336658 0.0020428488 -0.0028983362 -2.425018e-38 0.0013740608 -0.0024696006 6.4000433e-06
0.0010464978 0.00016219147 0.00041860316 -0.002255144 -0.00015121543 1.4440896e-38 -0.00092955504 -0.00065257784
2.2700086e-38 -0.0020478733 -0.0010723732 0.0013508021 0.0021448277 0.0020225148 0.0 -0.0019397333
0.00028062987 0.002385106 0.001848914 -0.0018303383 0.0011642679 -0.000758253 -0.0018638062 -0.001499623
0.00073041784 0.00034415908 1.5105185e-38 -5.947933e-05 -2.867079e-38 0.00018442284 0.001978434 0.0019811501
0.0005056521 -0.0021184133 -1.1800616e-38 -0.0018967896 -1.243001e-38 -0.0013365739 -0.0037515655 0.0016945439
2.1774788e-38 0.0009465499 -0.00067750853 0.000126707 2.01747e-38 0.00026102597 0.00034850312 -0.0010556624
0.00078549545 0.0008664516 0.0015618562 0.001922308 0.0019321091 0.0008557815 -0.000183837 0.0011282917
-2.608997e-38 0.00078140374 0.0008090918 0.0023811322 0.0 -1.2969993e-38 2.1309721e-38 2.8351547e-38
-2.240313e-38 -2.8551148e-38 -2.8899858e-38 0.0 -2.0588523e-38 -2.626489e-38 -1.8106399e-38 1.7918684e-38
1.7767299e-38 2.8613892e-38 -2.290626e-38 0.0 -0.0 1.9071895e-38 1.5314442e-38 2.702702e-38
0.0 -1.2723151e-38 0.0 -1.2503612e-38 2.204258e-38 -0.0 -1.7023051e-38 0.0
-1.6305896e-38 -1.2082482e-38 1.3192222e-38 2.1683031e-38 0.0 -1.378244e-38 1.6826045e-38 -1.8557695e-38
0.0 2.3715435e-38 -1.5716114e-38 -2.2256996e-10 1.2566437e-38 2.7833106e-38 0.0 2.2675449e-38
0.0 0.0 -1.5219085e-38 -2.8573933e-38 -0.0 2.3716612e-38 2.6494182e-38 1.7767739e-38
0.0 1.2086737e-38 -1.9016737e-38 -0.0 2.1669803e-38 -0.0 -0.0 2.2646687e-38
-1.1969652e-38 0.0 -2.7899113e-38 1.2426903e-38 -1.2626634e-38 2.656835e-38 0.0 2.8535742e-38
1.2843887e-38 2.4085468e-38 5.526146e-11 1.9700463e-38 0.0 -2.1088837e-38 2.316162e-38 1.4723107e-38
-1.2340217e-38 -1.9181551e-38 -0.0 -1.2058273e-38 2.70047e-38 2.0570141e-38 1.6858981e-38 2.8673714e-38
-2.8186763e-38 0.0 1.6853546e-38 -2.4604556e-38 -1.6945818e-38 2.544893e-38 2.7617477e-38 2.5314132e-38
-2.5646721e-38 1.720403e-38 1.2777828e-38 0.0 -2.5318022e-38 2.5579168e-38 1.1970833e-38 0.0
0.0 -2.0048754e-37 2.7773751e-37 -2.2977297e-37 -7.5910647e-38 -0.0 -4.8913114e-37 0.0
-6.43688e-37 -3.7770935e-38 -2.9977487e-37 2.1726715e-38 -5.0948544e-37 0.0 3.5702708e-38 -1.2164327e-11
1.8900253e-21 2.0857375e-38 -0.0 1.9555385e-37 2.0072457e-38 2.4842414e-37 1.2202164e-13 -4.4223944e-37
-2.9165985e-37 0.0 -5.949391e-11 -1.871489e-38 -3.8505978e-38 2.8675536e-35 0.0 -2.1225295e-37
2.207603e-37 -7.29518e-37 4.2523153e-38 -3.885391e-12 -2.2805548e-38 -2.223785e-08 0.0 -1.8280194e-37
-1.6714119e-37 0.00019060534 2.7726607e-38 3.473526e-37 0.0 -9.266081e-08 0.0 5.038845e-37
-1.2242892e-38 -3.0151194e-37 6.004612e-13 -4.4583132e-08 0.00011914388 8.1517635e-37 0.0 -1.6104664e-38

layers.2.bias f4 [100]
00000000: c06c 153e 8745 123d 9695 1b3e 426f 0d3e
00000010: 2237 bbbc f844 92bc 55fb 9cbc 5d71 013c
00000020: 5b72 a8bb 0a6a 7fbc 53a1 323d 1209 6d3d
00000030: 891e f03d a4fd 673c 2fcc 083e 9cf9 07bd
00000040: 8659 a53c 22dc 0f3d c680 533c e093 39bd
00000050: 09d8 4b3d a3cf 1abc f6ec 743d e6ba 353d
00000060: 420c e83c 6b13 ff3c 441f 2c3e ab20 08bd
00000070: d1d2 b73b 8e59 fcbc cdce f43c ffcd 3f3d
00000080: cd57 2038 39d9 e43c 2e72 143b b6f2 ee3b
00000090: 7019 a53d 2a83 173d 6352 cb3d 5986 c43d
000000a0: 3dd7 2abd dfcc ccbc 082a 923c e31f b03c
000000b0: a8f8 283d d194 df3d 1932 183e ab12 50bd
000000c0: df27 203e f9ef b33b 5776 a73b 455a f93d
000000d0: bd0f f03d c934 ea3d 5cda 9d3d e752 943d
000000e0: e512 433d d897 743d ab3d a43d 2126 903b
000000f0: 565c 133e 68f6 7cbd 1578 9e3d 05d9 ac3d
00000100: 6d56 0cbd 974c f03c 4e46 e8bc c512 c63a
00000110: be35 c73c 4331 05bd 9463 fd3d cd4e bdbc
00000120: fd53 58bd f6fa 8c3b 8c51 6f3e 41f6 533b
00000130: 1ab4 083d 3a2a bbbc 8eba 59b8 b966 4f3d
00000140: 4eca febc 5df6 af3a bc92 37bd d4a6 b2bc
00000150: 9ef9 663d 522b b83d 36fe c5bc 3c4e 5a3d
00000160: 3064 b53d 30b4 9f3d 7bca e43d 45df 0b3a
00000170: 07de c6bc c9d4 aabc a18f e9bc 8d15 8a38
00000180: 3a96 d1bc c938 5f3d e678 edbc f2b1 b83d
0.14592266 0.035710838 0.15193781 0.13811973 -0.022853438 -0.017855152 -0.019162813 0.007900563
-0.0051405854 -0.0155892465 0.043610882 0.05786998 0.11724574 0.014159594 0.1335914 -0.03319703
0.02018429 0.035122044 0.01290912 -0.04530704 0.049766574 -0.0094489185 0.059796296 0.044367693
0.028326157 0.031137189 0.16808802 -0.03323428 0.005609848 -0.030804422 0.029883767 0.046827313
3.8228744e-05 0.027935611 0.0022651064 0.007292117 0.080614924 0.036990322 0.099278234 0.09595937
-0.041709173 -0.025000034 0.017842308 0.02149958 0.041252762 0.10917056 0.1486286 -0.050799053
0.1564021 0.0054912535 0.0051105428 0.12175421 0.11721752 0.11435849 0.07707664 0.07242375
0.04762544 0.059715122 0.08019575 0.0043990766 0.14390692 -0.06175843 0.077377476 0.08439831
-0.03426211 0.029333396 -0.028353836 0.0015111795 0.024317618 -0.032517683 0.12372509 -0.023108864
-0.052814472 0.004302378 0.23370951 0.0032342824 0.033374883 -0.022847284 -5.1910574e-05 0.050635073
-0.031102326 0.0013424862 -0.04481767 -0.021808065 0.056390397 0.08992638 -0.024169069 0.053297266
0.08857 0.0779804 0.111714326 0.0005335699 -0.024275793 -0.020853417 -0.02851087 6.584367e-05
-0.025584329 0.054497514 -0.028988313 0.090183154

layers.2.weight f4 [100, 100]
00000000: dd74 2a3b bb9f ad80 f8ad 1681 c693 49bb
00000010: 9209 cb01 4098 7182 f680 c236 002f 9781
00000020: 2c00 9b81 8319 beba e608 9338 fb98 e7ba
00000030: 27bc 6c02 3845 0b36 833b 133b 2365 9402
00000040: cb55 5682 4c24 8782 5961 843c 6640 40bb
00000050: fc51 e2ba a323 6e82 188d 4a01 e8d3 e436
00000060: c4fd e0b5 1e3b 6182 b1f8 da3b 0000 0000
00000070: c771 4f3c 5727 bebb b6b6 6602 13b3 56b6
00000080: a0f6 1e02 8eb4 393c 3012 e380 209e 8982
00000090: b6d3 7636 d54c 0282 1f6f faba 045f 8f82
000000a0: 33fc 9601 8056 2d36 f8d1 e601 00da 65b5
000000b0: dc48 c53b 6e51 0902 7fbf f43b 1a4c 21bc
000000c0: d03d 5c3b 06a4 d5ba 1f9a 4a02 4c8c 1bbc
000000d0: f2d5 6302 d739 aeba b954 133c 2bb8 25b6
000000e0: efb9 823a 1fe5 f334 cc75 64b6 b716 3dba
000000f0: 9285 b1a5 e22d 5e81 d5dc a93a e850 723b
00000100: 4dff 6a36 5093 c681 78ce 1bbc 4010 5d02
00000110: 90ab 24b6 b48a 61bb d297 2f3a d333 9881
00000120: 9b35 4e82 f0ea 8903 381f aa33 d47c 7b82
00000130: 5fb5 07bb 1793 cdbb c8df c0b4 56d9 85bb
00000140: 3a22 a3b5 803a 4a01 0000 0000 fc3f bfb4
00000150: 5dc1 19ba f4d9 abb3 46c2 383b 5c9b 1482
00000160: 54bb 0302 b25b b000 a8bd b081 70a6 5337
00000170: c027 aabb ca98 46bb ef75 733b 285e b03a
00000180: f2c9 01bc f643 abbc 08d4 c4a1 04e8 1a3a
00000190: 6b71 25ba a2ca 0081 20e8 1181 16d6 483a
000001a0: 0c54 3402 b7a1 6302 1474 0d35 84c0 1382
000001b0: b46a 6202 9b7f bf39 10ed 84b7 ff18 e739
000001c0: 006b a300 18cb 3335 3dd2 11ba 8860 8081
000001d0: 6617 1f82 685e 7101 d520 83bb 0c73 3f3a
000001e0: 1676 e239 cd2d c081 8a49 9801 aaa1 8cb5
000001f0: 5e9b 5f35 8e7f 5b01 42d7 d7ba bea2 1102
00000200: 1e3e 4dbb 89fa bc3a aac4 8b02 51a3 a436
00000210: 530e 7c82 8ee7 37bb e336 3f02 4861 2281
00000220: 2009 62b4 84e2 5a02 12cf f939 98a7 e581
00000230: 5811 9c85 60c9 60b4 8bf8 4482 8039 b732
00000240: 9271 c2ba 5e69 0182 3d64 f2ba 3c94 203b
00000250: ac42 58ba 87b9 d539 ba70 0882 6ac3 1a3b
00000260: f075 b300 6340 ac39 31ca 11bb a7e8 1735
00000270: 2f9b 7cb9 1653 07b4 cc44 4a35 349e 3e39
00000280: 05fc 5d24 e420 3881 05f2 a1b9 f6ee 6eba
00000290: 4f96 5e35 0000 0000 bf1d 1b3b ca51 4202
000002a0: 2c33 9534 29ef 623a 9c2f 28b9 92e9 a081
000002b0: 5cb1 ff01 00ca 5102 dc19 0933 0000 0000
000002c0: 7650 063a a30f cc3a cae2 1835 aecf 853a
000002d0: 734e b934 e0b8 9701 b4da 6382 6001 0c34
000002e0: 77aa 1e39 5b61 1533 fc63 37ba 48fa 9302
000002f0: 8901 b000 309a c900 c887 6382 7087 5fb6
00000300: 7ae1 a83a e9f4 453a 2ce8 6fba 7c24 abb9
00000310: 872a 013b 3707 aa3b f654 c620 081d 18b9
00000320: 2a97 3d3b 1bda 8b02 9c0d ed01 b216 60bb
00000330: 4e65 6602 1ce8 a080 fcb3 9d36 1558 6782
00000340: c44a 9382 8c44 d3ba 0f3e a438 a7b4 00bb
00000350: 3484 8502 683f 3936 42c9 233b 0901 b200
00000360: 12f9 9a01 8892 8202 2623 933c 70af 55bb
00000370: 4b86 fbba 5c7d 8380 7c81 5982 614f e136
00000380: b3b2 3ab6 3f1b 7f82 8a69 f33b 80d3 1582
00000390: f793 663c 795b d3bb c8c9 7a82 7296 59b6
000003a0: bfb1 6402 836d 4e3c 79dc 9202 ec25 3382
000003b0: 604c 0336 0024 9c80 252b 0bbb 1659 5202
000003c0: b23a 9a01 dcca 7e36 be94 f101 f8b0 79b5
000003d0: 195e db3b de54 e081 330e 083c 6c4e 33bc
000003e0: 6fd7 743b 7169 edba 54dd 8602 68ea 2cbc
000003f0: eaf0 8c83 5d93 c1ba d6cc 233c c409 04b6
0.0026009597 -1.5944841e-38 -2.7675465e-38 -0.0030758246 7.4584156e-38 -1.7749577e-37 5.7966636e-06 -5.553608e-38
-5.6938254e-38 -0.0014503453 7.011164e-05 -0.0017669493 1.7392539e-37 2.0752905e-06 0.0022465892 2.1804695e-37
-1.5746858e-37 -1.98573e-37 0.0161597 -0.002933526 -0.0017266865 -1.7495706e-37 3.720277e-38 6.8195986e-06
-1.6763156e-06 -1.6547355e-37 0.0066824784 0.0 0.012661404 -0.0058030295 1.6950167e-37 -3.199272e-06
1.1678785e-37 0.0113345515 -2.0853182e-38 -2.02211e-37 3.6780089e-06 -9.572941e-38 -0.0019106603 -2.1066498e-37
5.5463186e-38 2.5829358e-06 8.4789947e-38 -8.562638e-07 0.0060206484 1.008854e-37 0.007469117 -0.009844804
0.003360618 -0.0016299493 1.4884847e-37 -0.009493899 1.6738725e-37 -0.0013292384 0.008992367 -2.4694116e-06
0.0009973625 4.5428985e-07 -3.4043214e-06 -0.00072131626 -3.0795116e-16 -4.080788e-38 0.001295949 0.0036974493
3.5017322e-06 -7.2945096e-38 -0.009509675 1.6241179e-37 -2.4537767e-06 -0.003441495 0.0006698343 -5.5910346e-38
-1.5149874e-37 8.106075e-37 7.9219205e-08 -1.8476392e-37 -0.002070747 -0.006273638 -3.592561e-07 -0.0040847464
-1.2154408e-06 3.7143512e-38 0.0 -3.5623077e-07 -0.00058653 -8.0024535e-08 0.0028191968 -1.0917909e-37
9.67812e-38 1.6195941e-38 -6.492433e-38 1.2615332e-05 -0.005192727 -0.0030303472 0.0037149151 0.0013455795
-0.007921683 -0.02090643 -1.3337601e-18 0.0005909207 -0.0006311151 -2.365527e-38 -2.6798835e-38 0.0007661296
1.3248432e-37 1.6723736e-37 5.269551e-07 -1.0855104e-37 1.663448e-37 0.00036525432 -1.5846017e-05 0.00044078377
1.500757e-38 6.6978237e-07 -0.0005562639 -4.715829e-38 -1.168819e-37 4.4332442e-38 -0.0040017166 0.0007303215
0.0004319406 -7.059538e-38 5.5941505e-38 -1.0477863e-06 8.330006e-07 4.0315463e-38 -0.001646735 1.0699622e-37
-0.0031317542 0.0014417927 2.0537094e-37 4.9065934e-06 -1.8518147e-37 -0.0028061601 1.4048216e-37 -2.9824497e-38
-2.105121e-07 1.6081117e-37 0.0004764726 -8.43618e-38 -1.467654e-35 -2.0934885e-07 -1.4471134e-37 2.1330152e-08
-0.0014834872 -9.507662e-38 -0.0018493008 0.0024502417 -0.0008249681 0.00040764755 -1.0024053e-37 0.002361501
1.6480862e-38 0.00032854368 -0.002224576 5.659044e-07 -0.00024090403 -1.2603081e-07 7.5350977e-07 0.00018178747
4.8135205e-17 -3.381906e-38 -0.00030888632 -0.00091145874 8.292017e-07 0.0 0.0023668853 1.4276341e-37
2.7790645e-07 0.00086568535 -0.00016039464 -5.9109875e-38 9.3926704e-38 1.5412866e-37 3.1921317e-08 0.0
0.0005123684 0.0015568625 5.6954434e-07 0.0010208988 3.4516015e-07 5.573392e-38 -1.6740091e-37 1.3039016e-07
0.00015131557 3.478031e-08 -0.0006995795 2.1743363e-37 1.6163598e-38 1.8514247e-38 -1.6716293e-37 -3.3308424e-06
0.001288458 0.0007551448 -0.0009151723 -0.00032642845 0.0019709186 0.0051888484 3.3598727e-19 -0.00014506665
0.0028929212 2.05494e-37 8.707958e-38 -0.0034193215 1.6926804e-37 -1.4776945e-38 4.6999176e-06 -1.6996478e-37
-2.1642622e-37 -0.0016118451 7.831689e-05 -0.0019638927 1.9618474e-37 2.7604056e-06 0.0024991785 1.634709e-38
5.6928064e-38 1.9185888e-37 0.017961096 -0.003260579 -0.0019189803 -1.207542e-38 -1.5979802e-37 6.7147635e-06
-2.7820176e-06 -1.874226e-37 0.0074283527 -1.1007489e-37 0.0140733635 -0.0064501134 -1.8425008e-37 -3.242309e-06
1.6801805e-37 0.012599352 2.1579317e-37 -1.3161726e-37 1.9564977e-06 -1.4339252e-38 -0.0021235433 1.545393e-37
5.665489e-38 3.796703e-06 8.8742853e-38 -9.301725e-07 0.006694567 -8.2406383e-38 0.008304167 -0.01094399
0.0037359854 -0.0018113089 1.9816566e-37 -0.010553934 -8.283772e-37 -0.0014768649 0.009997567 -1.9675217e-06

layers.3.weight f4 [1, 100]
00000000: 167c 083e d0f7 07bd e2ae 173e 64ce 183e
00000010: 23c7 4138 5d72 9235 10ff bdb3 fd2c 03bd
00000020: df62 cf2e d650 0737 7353 f43c 5894 e23c
00000030: 3d22 ee3d 21cf 483b b8b7 0b3e 3deb cdb6
00000040: 0862 89bc ecf6 15bc 7260 66b9 2d14 25b8
00000050: a01d 353d 21ee 43b5 0989 c0bd 9ead dabc
00000060: 6dc5 cf3c 9588 81bd fcee 153f 9727 b688
00000070: 4ff2 5db8 bfd7 bd35 f818 db3c f30b debc
00000080: 5693 4936 9c1d 27bd 67f1 ffbb ab0c f5bc
00000090: 3826 f4bd 270f 9ebd cd7c d73d ecb9 a13d
000000a0: 0d81 9fb8 70b4 a0b9 8e2c 133c d95d e2bd
000000b0: b8ce 1c3c a0a1 0f3e 1d20 0a3e 0b26 4a3a
000000c0: 98a7 0c3e e2cb d637 13d2 adbc e8d4 da3d
000000d0: 4c65 e43d 6f32 033e 6341 dfbd 473b 753d
000000e0: 4423 00bd 4eed b1bd e749 6f3d a777 96bc
000000f0: b880 e03d 98e1 46b2 fce8 933d 7ec4 14be
00000100: f73c 8fb9 4194 fe3b a1b2 dc23 b593 9bbb
00000110: c000 78bb 7ac6 81b8 7671 ff3d 5898 3fb5
00000120: 4444 33b4 1ea1 083a 57cd a9bf c14f dabb
00000130: 3706 adbc af46 b839 a274 a2af 96f8 9ebd
00000140: 7d03 abb5 fff5 9dbb 3548 3aa4 74eb ce09
00000150: eba6 773d c306 04be f34a d503 b67f d43c
00000160: 24ea 0dbe 43a5 0fbe 4985 c33d 909c 86ba
00000170: 5fb8 4dba bf9f b738 930d 8614 19fa 4eb8
00000180: ce4a 1a3a 2489 aebd 2630 6a9e 5b3a 9e3d
0.13328585 -0.033195317 0.14812806 0.14922482 4.6200246e-05 1.0911132e-06 -8.847394e-08 -0.032025326
9.430833e-11 8.065448e-06 0.029824948 0.027658626 0.11627624 0.0030641037 0.13644302 -6.1368614e-06
-0.016770378 -0.009153109 -0.00021970438 -3.9357856e-05 0.044217706 -7.2989684e-07 -0.094011374 -0.026694115
0.025362695 -0.06324879 0.58567786 -1.0963034e-33 -5.2916173e-05 1.4144388e-06 0.026745304 -0.027105307
3.0037095e-06 -0.040799722 -0.00781076 -0.029913267 -0.11921352 -0.07717734 0.10521851 0.0789679
-7.6057484e-05 -0.00030652015 0.008982791 -0.11053056 0.00957077 0.14026499 0.13488813 0.00077113573
0.13735807 2.5605728e-05 -0.021218335 0.1068514 0.11152133 0.12812208 -0.109011434 0.059870984
-0.031283632 -0.086878404 0.05842009 -0.018367602 0.10962051 -1.1576411e-08 0.072221726 -0.14528081
-0.00027320508 0.007769138 2.39281e-17 -0.0047478327 -0.0037842244 -6.1881685e-05 0.12472813 -7.1374734e-07
-1.6695509e-07 0.00052119966 -1.326579 -0.0066623394 -0.021121128 0.00035147878 -2.95505e-10 -0.07762258
-1.2741508e-06 -0.004820585 -4.0393483e-17 4.9814115e-33 0.06046192 -0.12893204 1.2536222e-36 0.025939804
-0.13858849 -0.14027886 0.095469065 -0.0010270048 -0.0007847603 8.755875e-05 1.3535896e-26 -4.934715e-05
0.00058857806 -0.08522251 -1.2397814e-20 0.07725974
