POLAR_Express_Benchmarks/cora/neural networks/nn_6_sigmoid.onnx (onnx, 4751 bytes, 7 tensors)

layers.0.bias f4 [20]
0	0xbd294095	-0.041321356
1	0xbe9a2ae2	-0.30110842
2	0xbdf2805e	-0.1184089
3	0x3d74034a	0.05957345
4	0x3f67bd18	0.9052291
5	0xbe3ae6eb	-0.1825215
6	0x3f67bce4	0.905226
7	0xbea62bfe	-0.32455438
8	0xbde3514d	-0.11099491
9	0xbf6775b8	-0.90414
10	0x3f67bd5c	0.90523314
11	0x3dc8ff23	0.098142885
12	0xbea21c42	-0.31662184
13	0xbe021ab2	-0.12705496
14	0xbf6775c1	-0.90414053
15	0xbea23911	-0.31684163
16	0xbe93c337	-0.28859875
17	0x3dfb68bb	0.12275835
18	0x3e10dcd5	0.1414674
19	0xbf6775b2	-0.90413964

layers.0.weight f4 [20, 4]
0	0xb9043f4f	-0.00012612085
1	0xb7d889fe	-2.5813464e-05
2	0x38b8ad5e	8.806096e-05
3	0x390fbd9d	0.00013708179
4	0xb8b2e09e	-8.5295396e-05
5	0xb765283c	-1.3658831e-05
6	0x384d95f3	4.901546e-05
7	0x38d99b6c	0.00010376316
8	0xb9057ab7	-0.00012729583
9	0xb7e51f22	-2.7313425e-05
10	0x388e7ab1	6.793941e-05
11	0x3909cbf8	0.00013141322
12	0xb90ba14c	-0.00013316161
13	0xb7eeac6a	-2.8452097e-05
14	0x38a5a231	7.8980236e-05
15	0x39216e24	0.00015395187
16	0x3f0b85d6	0.5450109
17	0x3dec7e73	0.11547556
18	0xbea8db45	-0.3297979
19	0xbf18cd6e	-0.5968846
20	0xb8eb47b5	-0.0001121903
21	0xb7d7fad8	-2.5746805e-05
22	0x3886814d	6.413702e-05
23	0x3915e243	0.00014294036
24	0x3f0b85f1	0.54501253
25	0x3dec9beb	0.115531765
26	0xbea8d4cc	-0.3297485
27	0xbf18cbc8	-0.59685946
28	0xb8ac6dc8	-8.2220475e-05
29	0xb78838c6	-1.62389e-05
30	0x3842b0ba	4.6417794e-05
31	0x38b5cc44	8.6688e-05
32	0xb8fd3521	-0.00012073876
33	0xb7c6c91c	-2.3697088e-05
34	0x38910149	6.914378e-05
35	0x39177ceb	0.00014447018
36	0xbf0b3638	-0.54379606
37	0xbdec1ed8	-0.115293205
38	0x3ea878a4	0.32904541
39	0x3f187847	0.5955853
40	0x3f0b85e0	0.5450115
41	0x3dec9e04	0.115535766
42	0xbea8d52e	-0.32975143
43	0xbf18cdda	-0.59689105
44	0xb911f910	-0.0001392106
45	0xb7f11143	-2.8737477e-05
46	0x38a5e4d0	7.910433e-05
47	0x3921bbb4	0.00015424081
48	0xb8c5c34f	-9.430071e-05
49	0xb7b7f828	-2.1930857e-05
50	0x3843c5b8	4.6675763e-05
51	0x38bbf3ca	8.962264e-05
52	0xb8f10f67	-0.000114946444
53	0xb7c7f564	-2.3836918e-05
54	0x388ef9ef	6.8176414e-05
55	0x390f19b4	0.00013647118
56	0xbf0b3664	-0.5437987
57	0xbdec1f73	-0.11529436
58	0x3ea8781e	0.32904142
59	0x3f18784a	0.59558547
60	0xb8c37361	-9.3198156e-05
61	0xb78be351	-1.6675944e-05
62	0x3853608e	5.0396244e-05
63	0x38d2d9ad	0.000100541256
64	0xb8b76584	-8.745029e-05
65	0xb7dfc926	-2.6677339e-05
66	0x385f5bf6	5.325299e-05
67	0x38ced9f2	9.863441e-05
68	0xb90bf8f1	-0.00013348811
69	0xb7e8c590	-2.7748552e-05
70	0x38ab41f0	8.166197e-05
71	0x391d42c8	0.00014997565
72	0xb90cc32c	-0.00013424148
73	0xb806436e	-3.201089e-05
74	0x38a5f1dc	7.912863e-05
75	0x391a553a	0.00014718334
76	0xbf0b3645	-0.54379684
77	0xbdec1e7a	-0.115292504
78	0x3ea8773c	0.3290347
79	0x3f187848	0.59558535

layers.1.bias f4 [20]
0	0xba86e367	-0.001029116
1	0x3aabef84	0.0013117646
2	0x3ab13039	0.00135184
3	0x3aa4affc	0.0012564654
4	0x3a318721	0.000677215
5	0x3ab49739	0.0013777978
6	0xbad90a5e	-0.0016558876
7	0xb7adc04d	-2.0712754e-05
8	0xbadf9cce	-0.0017060281
9	0x3a9d2e93	0.001199203
10	0xbabc7070	-0.0014376771
11	0x3ab81d75	0.0014046865
12	0xba8db580	-0.0010811538
13	0xbad6a4f2	-0.0016376062
14	0x3a998224	0.0011711759
15	0xbab728f2	-0.0013973995
16	0x3a9da129	0.0012026179
17	0x3aaecce6	0.0013336211
18	0xbaaac440	-0.0013028458
19	0x3ad633ee	0.001634238

layers.1.weight f4 [20, 20]
0	0x38710c08	5.7470083e-05
1	0x382ee650	4.1699328e-05
2	0x3860a864	5.3562588e-05
3	0x387f784d	6.0908777e-05
4	0xbe39af76	-0.1813334
5	0x3850ec14	4.981093e-05
6	0xbe39af04	-0.1813317
7	0x38279574	3.995509e-05
8	0x38614680	5.370984e-05
9	0x3e392699	0.1808113
10	0xbe39af94	-0.18133384
11	0x3880afe6	6.136279e-05
12	0x382af26d	4.0756935e-05
13	0x3860d49e	5.3603777e-05
14	0x3e392687	0.18081103
15	0x3829bf48	4.0470884e-05
16	0x3833b53c	4.2845713e-05
17	0x388143e8	6.163848e-05
18	0x38811f9c	6.157087e-05
19	0x3e39267e	0.1808109
20	0xb81ce869	-3.7409747e-05
21	0xb7e7443a	-2.7569116e-05
22	0xb812f000	-3.503263e-05
23	0xb825c2b8	-3.952041e-05
24	0x3df774d9	0.12082834
25	0xb8087b47	-3.2539738e-05
26	0x3df774a1	0.12082792
27	0xb7ddd778	-2.6445588e-05
28	0xb812d0b4	-3.5003482e-05
29	0xbdf6cd65	-0.12050895
30	0x3df77524	0.1208289
31	0xb8269fd2	-3.972633e-05
32	0xb7e267ab	-2.6989574e-05
33	0xb8133a2c	-3.5101708e-05
34	0xbdf6cd7a	-0.1205091
35	0xb7e0276a	-2.6721234e-05
36	0xb7ed3ddb	-2.8281405e-05
37	0xb8274d78	-3.988805e-05
38	0xb826d7af	-3.9778355e-05
39	0xbdf6cd6c	-0.120509
40	0xb846c2e0	-4.738837e-05
41	0xb811cefb	-3.476346e-05
42	0xb839c448	-4.429024e-05
43	0xb85246d9	-5.0133884e-05
44	0x3e190bd6	0.14945921
45	0xb82cc71d	-4.1193434e-05
46	0x3e190ba9	0.14945854
47	0xb80be206	-3.3350683e-05
48	0xb839fae0	-4.4341083e-05
49	0xbe18a057	-0.14904915
50	0x3e190c03	0.14945988
51	0xb853a636	-5.0461116e-05
52	0xb80ea968	-3.401321e-05
53	0xb839fa52	-4.4340566e-05
54	0xbe18a079	-0.14904965
55	0xb80d7fed	-3.373616e-05
56	0xb8159a61	-3.5668145e-05
57	0xb854935b	-5.0681974e-05
58	0xb8543571	-5.059451e-05
59	0xbe18a05d	-0.14904924
60	0xb8155d30	-3.5611156e-05
61	0xb7dc36c1	-2.625154e-05
62	0xb80be98d	-3.3357694e-05
63	0xb81dc223	-3.761252e-05
64	0x3dece1cf	0.11566507
65	0xb801e6b9	-3.0970874e-05
66	0x3dece19c	0.11566469
67	0xb7d33932	-2.5179794e-05
68	0xb80bb9b8	-3.3313147e-05
69	0xbdec4245	-0.115360774
70	0x3dece21e	0.11566566
71	0xb81e8712	-3.779593e-05
72	0xb7d79b76	-2.570239e-05
73	0xb80c3706	-3.3429846e-05
74	0xbdec4248	-0.1153608
75	0xb7d55ca4	-2.5434718e-05
76	0xb7e1ead8	-2.6931448e-05
77	0xb81f2cb5	-3.795019e-05
78	0xb81eb1f6	-3.7835875e-05
79	0xbdec421c	-0.11536047
80	0xb872ef23	-5.792001e-05
81	0xb82f7e58	-4.1840918e-05
82	0xb86240b4	-5.394286e-05
83	0xb880c180	-6.139558e-05
84	0x3e3f6162	0.18689492
85	0xb8523a36	-5.0122115e-05
86	0x3e3f6122	0.18689397
87	0xb828079a	-4.00614e-05
88	0xb862e570	-5.409628e-05
89	0xbe3ecc14	-0.18632537
90	0x3e3f61aa	0.186896
91	0xb881b17b	-6.184258e-05
92	0xb82b798c	-4.0882776e-05
93	0xb8626fba	-5.3986652e-05
94	0xbe3ecc7d	-0.18632694
95	0xb82a4021	-4.0590883e-05
96	0xb8346860	-4.301255e-05
97	0xb882403e	-6.210849e-05
98	0xb882179b	-6.20328e-05
99	0xbe3ecc11	-0.18632533
100	0x386457a0	5.4441043e-05
101	0x38180381	3.6242887e-05
102	0x3851d11e	5.002424e-05
103	0x38731bcc	5.7961603e-05
104	0xbe6d1aae	-0.23154709
105	0x38404cbc	4.584783e-05
106	0xbe6d1a58	-0.2315458
107	0x380f6a07	3.4192602e-05
108	0x3852bb6d	5.0242455e-05
109	0x3e6c3558	0.23067224
110	0xbe6d1b01	-0.23154832
111	0x38743e6a	5.823226e-05
112	0x3813761e	3.5157536e-05
113	0x385244a1	5.0131817e-05
114	0x3e6c356b	0.23067252
115	0x381224a4	3.4843237e-05
116	0x381de26c	3.764259e-05
117	0x3874bc4d	5.8349502e-05
118	0x3873c851	5.8122274e-05
119	0x3e6c356f	0.23067258
120	0x38308647	4.2086725e-05
121	0x3801488f	3.0823572e-05
122	0x3824fbe9	3.9335257e-05
123	0x383ac194	4.452614e-05
124	0xbe0adce9	-0.13560833
125	0x381940ab	3.653827e-05
126	0xbe0adccb	-0.13560788
127	0x37f7ed2e	2.955514e-05
128	0x38250ae0	3.9349194e-05
129	0x3e0a816b	0.13525932
130	0xbe0add16	-0.135609
131	0x383be280	4.479522e-05
132	0x37fcf7fa	3.0156214e-05
133	0x38253d5f	3.9396222e-05
134	0x3e0a8179	0.13525952
135	0x37fab00e	2.9884304e-05
136	0x3804b033	3.163535e-05
137	0x383cb2bb	4.498915e-05
138	0x383c4bf2	4.4893422e-05
139	0x3e0a8170	0.13525939
140	0xb87a5976	-5.968796e-05
141	0xb83181db	-4.2321026e-05
142	0xb8685d4b	-5.5399996e-05
143	0xb884d7f8	-6.334478e-05
144	0x3e5271ea	0.20551267
145	0xb8574d06	-5.1331728e-05
146	0x3e5271a4	0.20551163
147	0xb829676f	-4.038907e-05
148	0xb8692fb4	-5.5595956e-05
149	0xbe51c01a	-0.20483437
150	0x3e52722e	0.20551369
151	0xb885c34e	-6.3783125e-05
152	0xb82d26e0	-4.128262e-05
153	0xb86899a6	-5.5456207e-05
154	0xbe51c059	-0.20483531
155	0xb82be07e	-4.097865e-05
156	0xb836dde5	-4.3598837e-05
157	0xb88646ef	-6.40283e-05
158	0xb8860ce6	-6.3920204e-05
159	0xbe51c02a	-0.20483461
160	0x383cc2e1	4.5004188e-05
161	0x380af3fa	3.3128985e-05
162	0x38308679	4.2086907e-05
163	0x3847b3eb	4.761286e-05
164	0xbe0f169e	-0.13973472
165	0x38243aa7	3.915527e-05
166	0xbe0f1679	-0.13973416
167	0x38056215	3.1801017e-05
168	0x3830aaa6	4.21206e-05
169	0x3e0eb8aa	0.13937631
170	0xbe0f16e9	-0.13973583
171	0x38490986	4.7931004e-05
172	0x3807ffc6	3.2424716e-05
173	0x3830beda	4.2139414e-05
174	0x3e0eb8af	0.13937639
175	0x3806dbca	3.2152784e-05
176	0x380e874e	3.398145e-05
177	0x3849f62e	4.8151407e-05
178	0x3849a395	4.8074482e-05
179	0x3e0eb8d3	0.13937692
180	0xb859823b	-5.185812e-05
181	0xb81ee462	-3.7882834e-05
182	0xb84b0d64	-4.8411443e-05
183	0xb8664734	-5.4902586e-05
184	0x3e275ee6	0.16344795
185	0xb83cdd92	-4.5029046e-05
186	0x3e275ebf	0.16344737
187	0xb8186093	-3.6329566e-05
188	0xb84b6f32	-4.850253e-05
189	0xbe26e5ba	-0.16298571
190	0x3e275f23	0.16344886
191	0xb867e18a	-5.528474e-05
192	0xb81b6923	-3.7052796e-05
193	0xb84b3ea6	-4.8457317e-05
194	0xbe26e5b1	-0.16298558
195	0xb81a3757	-3.6768e-05
196	0xb8231c30	-3.888848e-05
197	0xb868e64c	-5.552759e-05
198	0xb868927e	-5.5449542e-05
199	0xbe26e5af	-0.16298555
200	0x37fbb3b8	3.000522e-05
201	0x37b924ca	2.207085e-05
202	0x37ebd75e	2.8114471e-05
203	0x3804e3b0	3.1683303e-05
204	0xbdd3db4f	-0.10344564
205	0x37da5a2b	2.6029613e-05
206	0xbdd3db25	-0.10344533
207	0x37b16840	2.114859e-05
208	0x37eb1865	2.8025543e-05
209	0x3dd351ef	0.10318362
210	0xbdd3db9d	-0.10344622
211	0x38055a9e	3.1794065e-05
212	0x37b5741b	2.1630947e-05
213	0x37ec9da2	2.8206796e-05
214	0x3dd35203	0.10318377
215	0x37b30790	2.1341984e-05
216	0x37bdf26f	2.2643448e-05
217	0x3805dc49	3.1914828e-05
218	0x38054edc	3.1783115e-05
219	0x3dd351f8	0.10318369
220	0xb8394f7c	-4.4181463e-05
221	0xb80868ec	-3.2522643e-05
222	0xb82d5be7	-4.1332005e-05
223	0xb843effe	-4.6715133e-05
224	0x3e0e79c4	0.13913637
225	0xb8213d44	-3.844245e-05
226	0x3e0e7999	0.13913573
227	0xb802ea40	-3.1212578e-05
228	0xb82d7416	-4.1354528e-05
229	0xbe0e17c1	-0.13876249
230	0x3e0e79f1	0.13913704
231	0xb8452630	-4.7004025e-05
232	0xb805838c	-3.1832184e-05
233	0xb82d96b6	-4.1386775e-05
234	0xbe0e17d0	-0.13876271
235	0xb8045e85	-3.155928e-05
236	0xb80bebc9	-3.3359775e-05
237	0xb846000a	-4.7206915e-05
238	0xb8459e5b	-4.711594e-05
239	0xbe0e17d4	-0.13876277
240	0x37c5a405	2.3560608e-05
241	0x37930cb2	1.7529677e-05
242	0x37ba0123	2.2173457e-05
243	0x37d01b8c	2.480836e-05
244	0xbdaf2d0a	-0.085535124
245	0x37abc27e	2.0475356e-05
246	0xbdaf2cf2	-0.085534945
247	0x378ce6ad	1.6796717e-05
248	0x37b89418	2.200347e-05
249	0x3daebb38	0.08531803
250	0xbdaf2d4f	-0.08553564
251	0x37d042b4	2.4826593e-05
252	0x3790a8a6	1.724467e-05
253	0x37bae940	2.2281543e-05
254	0x3daebb42	0.0853181
255	0x378dc9c4	1.6902464e-05

layers.2.bias f4 [20]
0	0xbc698308	-0.014252432
1	0xbcedc6ce	-0.029025462
2	0x3b36e3fb	0.0027906883
3	0xbd11b1db	-0.035570007
4	0x3c8eefed	0.01744839
5	0x3c7ccbcf	0.015429451
6	0x3c2e253c	0.010628995
7	0xbc1a1bbb	-0.0094060255
8	0xbb8f0f7f	-0.004365861
9	0x3cdd7b77	0.027036412
10	0x3c45da13	0.012075919
11	0x3cce19a6	0.025158715
12	0xbcb6a682	-0.022296194
13	0x3c9716cb	0.018443486
14	0xbc1ae6c2	-0.009454431
15	0xbd08aa8c	-0.03336577
16	0x3c7db528	0.015485086
17	0xbbc0e674	-0.005886847
18	0xbc877872	-0.016536925
19	0x3ca33060	0.019920528

layers.2.weight f4 [20, 20]
0	0xbe51658f	-0.20448898
1	0x3e0b5e9e	0.13610312
2	0x3e2c74ab	0.1684138
3	0x3e05681d	0.13027997
4	0x3e57ca36	0.21073231
5	0xbe85d6b2	-0.26140362
6	0xbe1c74e2	-0.15278962
7	0x3e6d6039	0.23181237
8	0xbe213b57	-0.15745293
9	0x3e3ca2fa	0.18421546
10	0xbdee91f4	-0.11648932
11	0x3e2084af	0.15675615
12	0xbdc5357d	-0.09629343
13	0xbe0f2c50	-0.13981748
14	0x3e3e07b8	0.18557632
15	0xbda21205	-0.07913593
16	0x3dff4194	0.1246368
17	0x3e2e5a6f	0.17026685
18	0xbe430eb2	-0.19048575
19	0xbe87bc27	-0.26510736
20	0xbeb0d3ac	-0.34536493
21	0x3e6b34b8	0.2296933
22	0x3e919d13	0.2844015
23	0x3e611f98	0.21984708
24	0x3eb667f6	0.3562619
25	0xbee26ce1	-0.44223693
26	0xbe83f608	-0.25773644
27	0x3ec8c8ea	0.39215785
28	0xbe87feff	-0.26561734
29	0x3e9f567c	0.3112067
30	0xbe4919fc	-0.19638819
31	0x3e878167	0.26465914
32	0xbe263658	-0.16231668
33	0xbe717bf6	-0.23582444
34	0x3ea08524	0.31351578
35	0xbe08953f	-0.13338183
36	0x3e5755c6	0.21028814
37	0x3e933897	0.28754112
38	0xbea4a99c	-0.32160652
39	0xbee5a5ee	-0.44853157
40	0x3dcb92db	0.0994012
41	0xbd877ae9	-0.0661524
42	0xbda799d3	-0.081836365
43	0xbd81b018	-0.06332415
44	0xbdd198e3	-0.10234239
45	0x3e01f0ce	0.12689516
46	0x3d98414b	0.07434329
47	0xbde679ba	-0.11253686
48	0x3d9ce381	0.076605804
49	0xbdb74b37	-0.08949893
50	0x3d684f4e	0.056716256
51	0xbd9c04b3	-0.07618084
52	0x3d401ab4	0.046900466
53	0x3d8b5c51	0.06804717
54	0xbdb8a4d3	-0.09015813
55	0x3d1dee5a	0.038557388
56	0xbd7824a4	-0.06058182
57	0xbda9711a	-0.082735255
58	0x3dbdafae	0.09262024
59	0x3e03c49e	0.12867972
60	0x3bc18e15	0.00590683
61	0xbb80c5c8	-0.0039298274
62	0xbb9f470b	-0.004860764
63	0xbb7694a5	-0.003762522
64	0xbbc71da6	-0.0060765324
65	0x3bf6c729	0.007531066
66	0x3b90e6f4	0.004422063
67	0xbbdade02	-0.0066792974
68	0x3b954c4d	0.004556215
69	0xbbae3757	-0.0053166556
70	0x3b5d3472	0.0033753184
71	0xbb944a5c	-0.004525466
72	0x3b37047d	0.002792626
73	0x3b84a519	0.0040480015
74	0xbbaf780f	-0.0053548883
75	0x3b168b8b	0.0022971358
76	0xbb6c054e	-0.0036013904
77	0xbba10647	-0.0049140784
78	0x3bb467ce	0.0055055385
79	0x3bfa3bd9	0.007636529
80	0x3e82ae96	0.25523823
81	0xbe2db958	-0.16965234
82	0xbe570a58	-0.2100004
83	0xbe2647a1	-0.16238262
84	0xbe869a0e	-0.2628941
85	0x3ea7234a	0.3264411
86	0x3e433caa	0.1906611
87	0xbe941b93	-0.28927287
88	0x3e493266	0.19648132
89	0xbe6b429b	-0.22974627
90	0x3e14d9c7	0.145362
91	0xbe482209	-0.19544233
92	0x3df61c24	0.12017086
93	0x3e32a8f1	0.17447259
94	0xbe6cffe9	-0.23144497
95	0x3dca49fe	0.09877394
96	0xbe1f10f7	-0.15533815
97	0xbe596913	-0.21231489
98	0x3e7372a0	0.23774195
99	0x3ea98329	0.3310788
100	0x3e83b6d9	0.2572544
101	0xbe2ed112	-0.17071941
102	0xbe587044	-0.21136576
103	0xbe275305	-0.16340263
104	0xbe87817a	-0.2646597
105	0x3ea87393	0.32900676
106	0x3e44ce8b	0.19219415
107	0xbe951d5d	-0.29123965
108	0x3e4acf1d	0.1980557
109	0xbe6cd0a3	-0.23126464
110	0x3e1614f6	0.14656433
111	0xbe496e74	-0.19671041
112	0x3df83662	0.12119748
113	0x3e341e58	0.175897
114	0xbe6e925c	-0.23298019
115	0x3dcc1429	0.09964783
116	0xbe200cb0	-0.1562984
117	0xbe5ad59c	-0.21370548
118	0x3e75624d	0.2396328
119	0x3eaad7cd	0.33367768
120	0x3e33feb0	0.17577624
121	0xbdef818f	-0.11694633
122	0xbe142dd6	-0.1447061
123	0xbde5425e	-0.11194299
124	0xbe396493	-0.18104772
125	0x3e65feda	0.224605
126	0x3e0687eb	0.13137786
127	0xbe4beb4f	-0.19913982
128	0x3e0aa214	0.1353839
129	0xbe2213c5	-0.15827854
130	0x3dcd2fb0	0.10018861
131	0xbe09eca3	-0.13469176
132	0x3da9a330	0.08283079
133	0x3df63c70	0.12023246
134	0xbe2345e9	-0.15944637
135	0x3d8b6f29	0.068083115
136	0xbddb53d0	-0.10709345
137	0xbe15cf05	-0.14629753
138	0x3e27ae9f	0.16375206
139	0x3e693f44	0.2277804
140	0xbe14b302	-0.14521411
141	0x3dc614db	0.096719466
142	0x3df50ab0	0.11964929
143	0x3dbd9cff	0.0925846
144	0x3e193e8f	0.1496527
145	0xbe3df6af	-0.18551134
146	0xbdde4c2c	-0.108543724
147	0x3e288843	0.1645823
148	0xbde51346	-0.11185317
149	0x3e06000f	0.1308596
150	0xbda9849c	-0.08277246
151	0x3de41bed	0.11138139
152	0xbd8c23fb	-0.068428
153	0xbdcb7286	-0.09933953
154	0x3e06fce9	0.13182415
155	0xbd6659ff	-0.05623817
156	0x3db5675e	0.08857606
157	0x3df7bcd7	0.12096565
158	0xbe0a8903	-0.13528828
159	0xbe40a567	-0.18813096
160	0xbd90695a	-0.07051344
161	0x3d40a199	0.04702911
162	0x3d6e37b3	0.058158588
163	0x3d38688c	0.04502158
164	0x3d94e473	0.07270136
165	0xbdb85345	-0.090002574
166	0xbd5800e8	-0.05273524
167	0x3da3b0ff	0.07992744
168	0xbd5e9422	-0.05434049
169	0x3d823dbd	0.06359432
170	0xbd24c0d8	-0.040222973
171	0x3d5dc87b	0.05414627
172	0xbd08356d	-0.033254076
173	0xbd45b404	-0.04826738
174	0x3d8332f5	0.06406204
175	0xbcdfe302	-0.027329925
176	0x3d306f12	0.043074675
177	0x3d70d486	0.05879643
178	0xbd868fc9	-0.065703936
179	0xbdbaea15	-0.09126679
180	0x3e93caae	0.2886557
181	0xbe453c88	-0.19261372
182	0xbe74105e	-0.23834369
183	0xbe3cccee	-0.1843755
184	0xbe98c09c	-0.2983445
185	0x3ebd2cdf	0.36948296
186	0x3e5c9a21	0.2154317
187	0xbea81546	-0.3282873
188	0x3e635bad	0.2220294
189	0xbe857fe7	-0.26074144
190	0x3e280c0a	0.16410843
191	0xbe632c59	-0.22184886
192	0x3e0ad793	0.13558798
193	0x3e49d4ed	0.19710131
194	0xbe867cc6	-0.2626707
195	0x3de411e5	0.111362256
196	0xbe349efe	-0.17638776
197	0xbe76c1fa	-0.24097434
198	0x3e89a2de	0.2688207
199	0x3ebfdefc	0.3747481
200	0x3e556aeb	0.20841567
201	0xbe0dcb34	-0.13847047
202	0xbe2f7f61	-0.17138435
203	0xbe07b80d	-0.13253804
204	0xbe5ba577	-0.21449839
205	0x3e886474	0.2663914
206	0x3e1f7eb7	0.15575682
207	0xbe71a47c	-0.23597902
208	0x3e245b90	0.16050553
209	0xbe3ffbee	-0.18748447
210	0x3df3464b	0.11878642
211	0xbe2356c0	-0.15951061
212	0x3dc926cd	0.09821854
213	0x3e11f76d	0.14254542
214	0xbe41671d	-0.18886991
215	0x3da55d4b	0.08074435
216	0xbe01d506	-0.12678918
217	0xbe316e48	-0.17327225
218	0x3e46cf99	0.1941513
219	0x3e8a52fe	0.27016443
220	0x3ea4924b	0.32142863
221	0xbe5acf97	-0.21368252
222	0xbe877468	-0.26455998
223	0xbe516dda	-0.20452061
224	0xbea9a697	-0.3313491
225	0x3ed2a434	0.41140902
226	0x3e75ba91	0.2399695
227	0xbebab941	-0.36469463
228	0x3e7d3df7	0.24730669
229	0xbe943619	-0.28947523
230	0x3e3b4920	0.18289614
231	0xbe7c1ad4	-0.24619609
232	0x3e1acd4a	0.15117374
233	0x3e60d5c3	0.21956544
234	0xbe954f5f	-0.29162118
235	0x3dfe706c	0.124237865
236	0xbe485695	-0.19564278
237	0xbe88f35b	-0.26748165
238	0x3e99432d	0.29934064
239	0x3ed5a50c	0.41727483
240	0xbe948c7b	-0.29013428
241	0x3e45983c	0.19296354
242	0x3e749a29	0.23886932
243	0x3e3d21b8	0.18469894
244	0x3e9921aa	0.29908496
245	0xbebe16ed	-0.37126866
246	0xbe5dd599	-0.21663512
247	0x3ea8849c	0.32913673
248	0xbe649d1f	-0.22325562
249	0x3e85ce94	0.2613417
250	0xbe291441	-0.16511633
251	0x3e63a44b	0.22230642
252	0xbe0bc1c7	-0.13648139
253	0xbe4afd13	-0.19823103
254	0x3e86ccd2	0.2632814
255	0xbde5b45c	-0.112160414

layers.3.weight f4 [1, 20]
0	0x3e7d15c8	0.2471534
1	0x3ed67625	0.41887012
2	0xbdf52a8c	-0.11971006
3	0xbbe8be5c	-0.0071027707
4	0xbe9e05bd	-0.30863753
5	0xbe9f2eb8	-0.3109033
6	0xbe5940ca	-0.21216121
7	0x3e337e6e	0.17528698
8	0x3dae0ba3	0.08498313
9	0xbeb32b72	-0.34994084
10	0xbe80d504	-0.25162518
11	0xbec75c81	-0.38937762
12	0x3eb3e7f1	0.35137895
13	0xbeb60088	-0.3554728
14	0x3e422e58	0.18962991
15	0x3eddc961	0.43317702
16	0xbe89f628	-0.26945615
17	0x3e1df43e	0.15425202
18	0x3e91122a	0.2833417
19	0xbec1c934	-0.37848818
