POLAR_Express_Benchmarks/juliareach/neural networks/acc_tanh20x20x20_.onnx (onnx, 4944 bytes, 9 tensors)

layers.0.bias f4 [5]
0	0x00000000	0.0
1	0x00000000	0.0
2	0x00000000	0.0
3	0x00000000	0.0
4	0x00000000	0.0

layers.0.weight f4 [5, 6]
0	0x3f800000	1.0
1	0x00000000	0.0
2	0x00000000	0.0
3	0x00000000	0.0
4	0x00000000	0.0
5	0x00000000	0.0
6	0x00000000	0.0
7	0x3f800000	1.0
8	0x00000000	0.0
9	0x00000000	0.0
10	0x00000000	0.0
11	0x00000000	0.0
12	0x00000000	0.0
13	0x00000000	0.0
14	0x00000000	0.0
15	0x00000000	0.0
16	0x00000000	0.0
17	0x3f800000	1.0
18	0x00000000	0.0
19	0x00000000	0.0
20	0x3f800000	1.0
21	0xbf800000	-1.0
22	0x00000000	0.0
23	0x00000000	0.0
24	0x00000000	0.0
25	0x00000000	0.0
26	0x00000000	0.0
27	0x00000000	0.0
28	0x3f800000	1.0
29	0xbf800000	-1.0

layers.1.bias f4 [20]
0	0xc0d28595	-6.5788064
1	0x3dc9d8c0	0.09855795
2	0xbf987b99	-1.1912719
3	0xbe8809d7	-0.26570007
4	0xc07cdcb7	-3.9509714
5	0xc0200606	-2.5003676
6	0xc08fb481	-4.490784
7	0x406cf9bc	3.7027426
8	0x3f5f4fd6	0.87231195
9	0xc02e5676	-2.7240272
10	0x403a39e5	2.9097836
11	0x40892190	4.285347
12	0xbf91272b	-1.1340078
13	0x405d680a	3.459475
14	0xbfdb880b	-1.7150892
15	0xc0b0b8e4	-5.5225697
16	0xbf4644aa	-0.77448523
17	0x4063c565	3.558923
18	0xbe4db33b	-0.20087902
19	0x40bd895d	5.923018

layers.1.weight f4 [20, 5]
0	0x3c5813b2	0.0131882895
1	0x3a215663	0.0006154535
2	0x3c5d78d2	0.013517575
3	0x38ac7fdd	8.2254155e-05
4	0xbc95df7d	-0.018295044
5	0x3cf96327	0.030442787
6	0x3aba358d	0.0014206633
7	0x3d2797a4	0.0409161
8	0xb9aa60a7	-0.00032496938
9	0x3cf3c9d8	0.029759333
10	0x3d9bfd0e	0.07616626
11	0x3b68f15d	0.0035544254
12	0xbe261653	-0.16219454
13	0x39172278	0.00014413323
14	0x3cd64a88	0.026158586
15	0x3c814da7	0.015784098
16	0x3a4117cd	0.00073659123
17	0x3d846f1a	0.064665034
18	0xbcb61750	-0.022227913
19	0xbf1fa033	-0.6235382
20	0xbe255edf	-0.16149472
21	0xbbf6f413	-0.00753642
22	0x3e9f652b	0.31131873
23	0xb9095fad	-0.0001310098
24	0x3cbb6376	0.022874575
25	0xbe2a867a	-0.16652861
26	0xbbfea6b0	-0.0077713355
27	0x3e8215ab	0.25407156
28	0xb80bc203	-3.332087e-05
29	0xbc2f29b1	-0.010691092
30	0x3e05b70a	0.13058105
31	0x3bc7ae5b	0.006093783
32	0x3e3ffedd	0.18749566
33	0xbdc31371	-0.095251925
34	0xbc379cb7	-0.011206797
35	0xba9550b7	-0.0011391853
36	0xb85efa3e	-5.316198e-05
37	0xbc1ed64a	-0.009694645
38	0xb8a62f64	-7.924324e-05
39	0xbd5782fc	-0.05261515
40	0x3cc92e2f	0.024558155
41	0x3a9636f7	0.0011460473
42	0xba226a25	-0.00061956263
43	0xb82710a8	-3.9831415e-05
44	0xbce9aeba	-0.028525699
45	0x3d1139d3	0.035455536
46	0x3ad8dee2	0.0016545916
47	0xbc6fbb67	-0.014632083
48	0x392518c1	0.00015744848
49	0xbbb75167	-0.0055944207
50	0x3bb91ca4	0.005649166
51	0x398a3785	0.00026362776
52	0xbd0a348e	-0.033741526
53	0xb8354cd4	-4.3225315e-05
54	0xbd04f728	-0.03246227
55	0xbdae9c34	-0.08525887
56	0xbb826027	-0.0039787474
57	0x3c3a460f	0.011369242
58	0x3a086f4b	0.0005204572
59	0xbe0e6aee	-0.13907978
60	0xbed82928	-0.422189
61	0xbca16669	-0.019702153
62	0x3eedfff4	0.4648434
63	0x38d28e23	0.00010040055
64	0x3c2c4c2e	0.0105162095
65	0x3debc478	0.11512083
66	0x3bb00a29	0.005372305
67	0xbe4e2393	-0.20130758
68	0x36b5237f	5.3983526e-06
69	0x3b95729b	0.004560781
70	0x3cb5511d	0.022133404
71	0x3a87621d	0.0010328923
72	0xbd54386e	-0.051811628
73	0x38d1fc4f	0.00010012893
74	0x3c83ec53	0.0161039
75	0x3e025d7c	0.12730974
76	0x3bc2adbd	0.0059411214
77	0x3d8ff388	0.07028872
78	0xb701d931	-7.739568e-06
79	0x3b9ceb91	0.004788824
80	0x3c1d9e95	0.009620328
81	0x39eb60df	0.00044894867
82	0x3e3f9138	0.1870774
83	0xbdd31d94	-0.10308376
84	0xbea7748f	-0.32706115
85	0x3b32df0d	0.0027293593
86	0x39058ea7	0.0001273701
87	0xbdb5f15a	-0.08883925
88	0xb79ab174	-1.8440864e-05
89	0xbb9f0b12	-0.0048536146
90	0x3dafcf67	0.08584481
91	0x3b834587	0.004006091
92	0x3e38873d	0.1802034
93	0xbd580c08	-0.05274585
94	0xbcac168b	-0.021006843
95	0xbc327198	-0.010891341
96	0xba053cec	-0.00050826254
97	0x3d137ed9	0.036009643
98	0x3b554c4d	0.00325467
99	0x3cc3e117	0.023911042

layers.2.bias f4 [20]
0	0x3fd3ae23	1.6537517
1	0xbfba3adc	-1.4549212
2	0x3fa7dd68	1.3114443
3	0xbf8e6cbe	-1.1126935
4	0xbf6aabb3	-0.9166824
5	0x3f4af939	0.79286534
6	0x3f195551	0.5989581
7	0xbee5b2ae	-0.44862884
8	0xbe7c6249	-0.24646868
9	0xbdf99e81	-0.12188435
10	0x3d825b83	0.06365111
11	0x3eaa8758	0.33306384
12	0xbee85b84	-0.4538232
13	0x3f1ae6df	0.6050853
14	0xbf49d17d	-0.7883528
15	0x3f768003	0.9628908
16	0x3f863c9d	1.0487248
17	0x3fa25430	1.2681942
18	0x3fb4f362	1.4136775
19	0xbfd1d767	-1.639386

layers.2.weight f4 [20, 20]
0	0xbf032197	-0.5122313
1	0xbd4d12b7	-0.050066676
2	0x3e751c5c	0.239366
3	0xbeffba09	-0.4994662
4	0xbe8d264b	-0.27568278
5	0x3e4fa673	0.20278339
6	0x3eb33827	0.35003778
7	0xbd60c470	-0.054874837
8	0xbcf62069	-0.030044751
9	0xbd9686c2	-0.07349922
10	0xbee48742	-0.44634444
11	0xbed49612	-0.41520745
12	0x3e870a1b	0.26374897
13	0x3eed1058	0.46301532
14	0x3eeb9679	0.4601324
15	0x3ca01c04	0.019544609
16	0xbeccca0d	-0.39997903
17	0x3ed5fe47	0.4179556
18	0x3f0434e7	0.5164322
19	0x3f0640f8	0.52442884
20	0x3f0f4a7a	0.5597302
21	0xbee4f87b	-0.44720826
22	0xbdd1601a	-0.10223408
23	0x3ee5183f	0.4474506
24	0xbe990e3f	-0.2989368
25	0x3e72e8c0	0.237216
26	0x3e912f2c	0.28356302
27	0xbcf60103	-0.03002978
28	0xbea9b46a	-0.33145458
29	0x3eed784f	0.4638085
30	0xbed21b19	-0.410363
31	0x3ca6b2c7	0.02034892
32	0x3e84e343	0.25954637
33	0xbe7a0182	-0.24414638
34	0xbf1b5a4e	-0.6068467
35	0xbe85e9fe	-0.26155084
36	0x3efbb0a1	0.49158195
37	0xbdff068a	-0.12452419
38	0xbef41fe0	-0.4768057
39	0xbec58cc7	-0.38583967
40	0xbe812332	-0.25222164
41	0x3ef25544	0.47330678
42	0x3ee90a55	0.45515695
43	0xbe406fd4	-0.18792659
44	0x3dec5764	0.11540106
45	0x3ebe3ed8	0.3715732
46	0xbf207cab	-0.6269023
47	0x3e87ed98	0.26548457
48	0x3ed48ac4	0.4151212
49	0xbdfb3871	-0.12266625
50	0xbd9b1130	-0.07571638
51	0xbd954ffd	-0.07290647
52	0xbe8e5b9b	-0.27804264
53	0x3e439368	0.190992
54	0xbf0ccaa3	-0.549967
55	0xbdfc5a0c	-0.123218626
56	0xbc0f6c86	-0.008753901
57	0xbd08d08d	-0.033402015
58	0xbf228f92	-0.6350032
59	0x3f273df6	0.6532892
60	0x3d4119bc	0.047143683
61	0x3e78e7f5	0.24307235
62	0xbf1b7219	-0.60720974
63	0x3eed4435	0.463411
64	0xbee5e4ed	-0.4490122
65	0xbedb6ed0	-0.4285798
66	0xbe35743f	-0.17720126
67	0x3f224e6b	0.63400906
68	0x3e277bf1	0.16355874
69	0xbefec7bf	-0.4976177
70	0x3e7efc76	0.24900994
71	0xbe087057	-0.13324104
72	0xbeb258c0	-0.34833336
73	0x3eea3c22	0.45749003
74	0x3edce07b	0.43140015
75	0x3e70e42e	0.23524544
76	0x3e847847	0.25873014
77	0xbd5868ee	-0.052834444
78	0xbd94bb60	-0.072623014
79	0x3ea90dcd	0.33018342
80	0x3daee422	0.08539607
81	0x3f523ac6	0.8212093
82	0x3d726387	0.059176948
83	0xbea4369b	-0.3207291
84	0x3e25afd9	0.16180362
85	0x3f0fbef3	0.5615074
86	0xbe846c3f	-0.25863835
87	0x3f547f16	0.8300642
88	0x3e856c4a	0.2605918
89	0x3d28c4bb	0.04120324
90	0xbe8a2090	-0.26977968
91	0x3d915cfe	0.07097815
92	0xbe7069d0	-0.23477864
93	0x3ee8ada2	0.4544497
94	0x3c500973	0.012697565
95	0x3efcac29	0.49350098
96	0xbe03aa96	-0.12858042
97	0xbdbdbe62	-0.09264828
98	0xbe9d7b6f	-0.30758235
99	0xbeabd572	-0.33561283
100	0xbe49a933	-0.1969345
101	0xbedba614	-0.42900145
102	0x3ebb4e7d	0.3658332
103	0xbe855f9d	-0.2604951
104	0xbd58c442	-0.05292154
105	0xbea09f94	-0.31371748
106	0xbc96c547	-0.018404616
107	0x3f01cff5	0.5070794
108	0xbf088635	-0.53329784
109	0xbe9e4620	-0.30912876
110	0xbe9bfefa	-0.3046797
111	0xbd758c0c	-0.059948012
112	0x3f111edc	0.5668771
113	0x3f1722f3	0.59037703
114	0x3e11f73e	0.14254472
115	0xbeef5d6d	-0.46750966
116	0xbef2cebf	-0.4742336
117	0x3de9ab14	0.11409584
118	0xbeecd843	-0.46258745
119	0x3e6d36cb	0.23165433
120	0xbf0186ca	-0.50596297
121	0xbdc047c0	-0.09388685
122	0xbe8cb6c1	-0.2748318
123	0x3e0f849b	0.14015429
124	0x3f0bdf28	0.54637384
125	0x3ed817bc	0.42205608
126	0xbf40e555	-0.7534993
127	0x3f01bf0d	0.50682145
128	0x3de973ab	0.11399015
129	0xbe5209f0	-0.20511603
130	0xbe16c60b	-0.14723985
131	0xbee59d35	-0.44846502
132	0x3e8f802f	0.28027484
133	0xbdf83af9	-0.12120623
134	0x3e8884b3	0.2666374
135	0xbe766d03	-0.24065022
136	0xbee63a08	-0.4496615
137	0xbef5d18e	-0.4801144
138	0x3d8a0604	0.06739429
139	0x3e876561	0.26444533
140	0x3dd96d30	0.10616529
141	0x3f1ff191	0.62477976
142	0x3e4c7433	0.19966201
143	0x3ef31218	0.47474742
144	0xbf063add	-0.5243357
145	0x3f2ea50b	0.68220586
146	0xbe9e3bfe	-0.30905145
147	0xbe7e4358	-0.24830377
148	0xbf32cc21	-0.69842726
149	0xbe10c99e	-0.14139411
150	0x3d9ffeec	0.07812294
151	0xbd3b173c	-0.045676455
152	0xbbba8def	-0.0056931893
153	0xbdb4d608	-0.08829886
154	0x3e2c639e	0.16834876
155	0xbe7551a3	-0.23956923
156	0xbf10fed1	-0.5663882
157	0xbed57c9b	-0.4169663
158	0xbe16cc7d	-0.14726444
159	0xbeae381c	-0.34027183
160	0x3ea29dfa	0.31761152
161	0x3ef07ba8	0.46969342
162	0xbd9747ff	-0.07386779
163	0xbcc4f721	-0.024043621
164	0x3ee0189f	0.43768784
165	0x3f193e04	0.59860253
166	0xbd6e4f73	-0.058181237
167	0xbeb27851	-0.3485742
168	0x3e8582db	0.26076397
169	0xbef7440e	-0.4829411
170	0x3e983dd6	0.29734677
171	0x3e8af92c	0.27143228
172	0xbdc49053	-0.0959784
173	0xbf131e00	-0.5746765
174	0xbdc4a141	-0.09601069
175	0xbf2b3b6f	-0.66887563
176	0x3ed4684e	0.41485828
177	0xbe178542	-0.14796928
178	0x3f089c44	0.5336344
179	0x3e63fdeb	0.22264831
180	0x3f137f43	0.5761606
181	0x3ee62c1a	0.44955522
182	0x3f00291e	0.5006274
183	0x3f06148d	0.5237511
184	0xbcd066a8	-0.025439575
185	0x3e93317b	0.28748688
186	0xbeaf05f7	-0.34184238
187	0xbedf9bc6	-0.43673533
188	0x3f043164	0.51637864
189	0xbe2bc475	-0.16774161
190	0x3daf0e95	0.08547703
191	0x3ea8fc4f	0.33004996
192	0x3eb5c07b	0.35498413
193	0xbec06620	-0.37577915
194	0xbe1226f7	-0.14272676
195	0xbefa19c7	-0.48847792
196	0xbea5a9ef	-0.32356212
197	0xbe8ecca9	-0.27890518
198	0xbecf7a97	-0.40523216
199	0xbdbc113d	-0.091829754
200	0x3f0c0112	0.54689133
201	0x3f01d8bd	0.5072134
202	0x3ec5dfeb	0.38647398
203	0x3ee6c1c9	0.4506972
204	0x3e299093	0.16559057
205	0xbe201a1a	-0.15634957
206	0x3dda2e25	0.106533326
207	0x3eb72dc6	0.3577711
208	0x3ece0d32	0.40244442
209	0x3ed16b2f	0.40902087
210	0xbebea577	-0.37235615
211	0x3ef0c697	0.47026512
212	0xbe2585b8	-0.16164291
213	0xbe68b938	-0.22726905
214	0xbef02689	-0.469044
215	0xbee89a5b	-0.45430264
216	0x3e242902	0.16031268
217	0x3e8adc76	0.27121323
218	0xbe91ab58	-0.28451037
219	0x3ecc28c4	0.39874852
220	0x3ec40c31	0.3829055
221	0xbee049a9	-0.43806198
222	0x3e65a757	0.22427116
223	0xbe50aa8b	-0.20377557
224	0xbb3ce90e	-0.0028825435
225	0xbe7989fb	-0.24369042
226	0xbd76ab25	-0.06022181
227	0xbe95494f	-0.29157493
228	0xbeb78068	-0.35840154
229	0xbf1927b3	-0.598262
230	0x3ebc7761	0.3680983
231	0xbe100c37	-0.1406716
232	0xbf3a3688	-0.7273946
233	0x3f33b2cc	0.701947
234	0x3e006696	0.12539133
235	0xbe0e98f6	-0.13925537
236	0x3eff7936	0.49897164
237	0x3de07761	0.1096027
238	0x3e5b9fc3	0.21447663
239	0xbe1384a5	-0.14406069
240	0xbee96f9f	-0.45592973
241	0x3df414a1	0.11917997
242	0xbe234b37	-0.15946661
243	0x3e8f6319	0.28005293
244	0x3e6e41e0	0.23267317
245	0xbe9ace4c	-0.30235517
246	0xbf259067	-0.64673465
247	0x3e3c9a0b	0.18418138
248	0x3eb9da23	0.36299238
249	0x3eb29ed4	0.348868
250	0xbdb3a086	-0.08770852
251	0xbe6145ee	-0.21999332
252	0x3db9b621	0.090679415
253	0x3f1657d3	0.5872776
254	0x3ec09ddb	0.37620434
255	0x3f00fb88	0.50383806

layers.3.bias f4 [20]
0	0x3fcf9595	1.6217524
1	0x3fba4293	1.4551567
2	0x3fa06dd3	1.2533516
3	0x3f8b9b44	1.0906758
4	0x3f6eccab	0.9328105
5	0x3f483636	0.7820772
6	0x3f257e14	0.64645505
7	0x3edc5951	0.43036893
8	0x3e4d54fe	0.20051953
9	0xbd5d2db7	-0.053998675
10	0xbdb7113e	-0.089388356
11	0xbe849939	-0.2589815
12	0xbee32907	-0.4436724
13	0xbf1f2144	-0.62160134
14	0xbf4b580c	-0.79431224
15	0xbf707e0f	-0.9394235
16	0xbf8e4af6	-1.1116626
17	0x3fa0ee01	1.2572633
18	0xbfb6ae06	-1.4271858
19	0x3fd1edf1	1.6400739

layers.3.weight f4 [20, 20]
0	0xbf0396e2	-0.51402104
1	0xbea9b0f2	-0.3314281
2	0x3e439581	0.191
3	0xbe88b510	-0.2670064
4	0xbe83c617	-0.25737068
5	0xbea538e0	-0.32269955
6	0xbe3654b6	-0.17805752
7	0xbf203039	-0.6257358
8	0xbe075b43	-0.13218407
9	0x3ee31cc7	0.44357893
10	0x3efb7d6b	0.49119124
11	0xbf1b3ab7	-0.60636467
12	0xbebdf3c4	-0.3710004
13	0x3cb01654	0.021495022
14	0xbdb1f5b8	-0.08689445
15	0xbe62da7d	-0.22153659
16	0xbef9600a	-0.48706084
17	0x3ec5f709	0.38665035
18	0xbe892559	-0.26786307
19	0xbea44f3b	-0.32091698
20	0xbe9caf21	-0.30602363
21	0x3ebca7d9	0.36846808
22	0xbea1db59	-0.3161266
23	0xbe893cc3	-0.2680417
24	0x3ed7fda2	0.42185694
25	0x3e4e4922	0.20145085
26	0xbdbfcd3b	-0.093653165
27	0x3f1c56d5	0.61069995
28	0xbed9ab50	-0.42513514
29	0xbefcf408	-0.4940493
30	0x3f062123	0.5239431
31	0xbf268b8e	-0.65056694
32	0x3dee2d68	0.11629754
33	0x3f0274a2	0.5095922
34	0xbdd87243	-0.10568669
35	0xbf072c8d	-0.52802354
36	0x3df5c93e	0.120012745
37	0x3d9ae3b9	0.07562966
38	0x3ec0533a	0.37563497
39	0xbf44c6de	-0.7686595
40	0xbf12e0ad	-0.5737408
41	0xbe86d54e	-0.26334614
42	0xbe740ecf	-0.23833774
43	0xbd3db0e5	-0.046311278
44	0xbebd702a	-0.36999637
45	0x3ec4edc6	0.38462657
46	0x3ed4fdfc	0.41600025
47	0x3f0df2cb	0.554486
48	0xbd48b5ba	-0.049001433
49	0x3e8b765a	0.27238733
50	0xbec4d2a8	-0.38441968
51	0x3e60bbef	0.21946691
52	0x3e1bf4fd	0.15230174
53	0xbe8b3788	-0.27190804
54	0xbe95b256	-0.29237622
55	0x3f03e412	0.5151988
56	0x3f0f07ad	0.5587109
57	0xbec1e2ff	-0.37868497
58	0xbf16b6c8	-0.5887265
59	0x3e3c9408	0.18415844
60	0xbeb73074	-0.35779154
61	0xbeecaee5	-0.46227184
62	0xbefd11ad	-0.49427548
63	0xbe634c7d	-0.22197147
64	0xbefc3d69	-0.49265602
65	0xbde12434	-0.10993233
66	0xbf120073	-0.57031935
67	0x3ec66234	0.38746798
68	0xbe82eef4	-0.25572932
69	0x3ea72e02	0.3265229
70	0x3ea22b63	0.31673726
71	0x3ec18cbd	0.37802687
72	0x3e86a93a	0.26300985
73	0xbe8f8402	-0.280304
74	0x3e907839	0.28216723
75	0xbe2b8a25	-0.16751917
76	0xbedb13e5	-0.42788616
77	0xbef5d405	-0.4801332
78	0xbe013b45	-0.12620266
79	0xbec1cf18	-0.37853312
80	0xbf083162	-0.5320035
81	0xbec4cab9	-0.38435915
82	0xbdc58cb0	-0.09645975
83	0x3eb265ea	0.3484338
84	0xbefe01b6	-0.4961068
85	0x3ef555ea	0.4791711
86	0xbf0a8d5a	-0.54121935
87	0x3e332a16	0.17496523
88	0xbe727ee1	-0.23681213
89	0x3e3954f2	0.1809881
90	0xbf02826d	-0.50980264
91	0xbeee201c	-0.46508873
92	0x3d579df6	0.052640878
93	0xbdf3620b	-0.118839346
94	0xbe932442	-0.287386
95	0x3f01d3cf	0.5071382
96	0x3ecf010b	0.40430483
97	0xbe27acc5	-0.163745
98	0x3ed024ad	0.4065298
99	0x3d60260f	0.054723796
100	0xbf19c057	-0.6005911
101	0xbed164d5	-0.4089724
102	0xbebe834b	-0.37209544
103	0x3e196926	0.14981517
104	0x3e4499b2	0.19199255
105	0x3ce7adcc	0.028281115
106	0xbf22a3e6	-0.6353134
107	0x3e99daa3	0.3004962
108	0x3df17496	0.11789815
109	0x3e33bf76	0.17553505
110	0x3dedfb3e	0.11620186
111	0xbc439412	-0.011937158
112	0xbd2c0159	-0.041993473
113	0x3e840741	0.25786784
114	0x3f0195ab	0.50619
115	0x3d5d16ea	0.05397693
116	0xbec178e3	-0.37787542
117	0xbf24ea98	-0.6442046
118	0xbf21c881	-0.6319657
119	0xbe8b7168	-0.2723496
120	0xbddd5345	-0.10806898
121	0xbd6cb4a7	-0.05778947
122	0xbf00ce4e	-0.50314796
123	0xbc9f19fe	-0.019421574
124	0x3d090a43	0.033457052
125	0x3db031bf	0.08603238
126	0xbd9ba4d0	-0.07599795
127	0xbef7426b	-0.4829286
128	0xbe576891	-0.21035983
129	0xbec528b1	-0.38507608
130	0x3ec4400a	0.38330108
131	0x3f2fa089	0.6860433
132	0x3e7877f4	0.24264508
133	0x3ef3763f	0.47551152
134	0x3e98c3ae	0.29836792
135	0x3f3448bf	0.704235
136	0xbe3a22ce	-0.1817734
137	0x3de6491c	0.11244413
138	0xbf155c0f	-0.58343595
139	0xbf1812d8	-0.59403753
140	0xbe8c5b90	-0.27413607
141	0xbf11f4a5	-0.5701392
142	0xbda9b2ab	-0.08286031
143	0xbe4d728f	-0.20063232
144	0xbf18cea8	-0.5969033
145	0x3e56d074	0.20977956
146	0x3f09d114	0.5383465
147	0xbf1ccf5b	-0.612539
148	0xbea8097d	-0.3281974
149	0x3e6f812f	0.23389123
150	0x3d251520	0.04030335
151	0xbe8bdd4f	-0.27317283
152	0x3e8baf41	0.27282146
153	0x3e015321	0.12629367
154	0xbea02b5e	-0.31283087
155	0x3e953e0f	0.2914891
156	0x3efcd951	0.4938455
157	0xbec1639a	-0.37771302
158	0xbef2a095	-0.4738814
159	0x3dcf3292	0.101170674
160	0xbdf860bb	-0.12127825
161	0x3f245b2b	0.6420161
162	0xbef505dd	-0.47856036
163	0x3eb73257	0.35780594
164	0x3e183309	0.14863218
165	0xbd8c5659	-0.06852407
166	0x3dee3b31	0.116323836
167	0x3f118d60	0.56856346
168	0x3e9cda3c	0.3063525
169	0xbe5a49b6	-0.21317181
170	0xbf005a89	-0.50138146
171	0x3eded164	0.43519127
172	0x3d89207c	0.06695649
173	0xbe44e74b	-0.19228856
174	0x3f107160	0.56422997
175	0xbefe9987	-0.49726507
176	0xbe9cc8e8	-0.3062203
177	0x3cd50178	0.026001677
178	0xbcb4dfb9	-0.022079336
179	0xbee7d41f	-0.45279023
180	0x3ee8daf4	0.45479548
181	0xbeb177ec	-0.34661806
182	0x3efdbc46	0.49557704
183	0x3e3c9483	0.18416028
184	0x3e8f837f	0.2803001
185	0x3e62ea6b	0.22159736
186	0x3d16b9c5	0.036798257
187	0x3f0cf0dc	0.5505502
188	0x3f0aa29b	0.54154366
189	0xbec9c7c8	-0.39410233
190	0x3e43b237	0.19110952
191	0x3ef3ca3e	0.47615236
192	0xbf0e972c	-0.5569942
193	0x3e3838ed	0.17990465
194	0x3eba404b	0.36377177
195	0x3f0333d9	0.5125099
196	0x3ede2789	0.43389538
197	0xbe67c8b3	-0.22635154
198	0x3ea1f63e	0.3163318
199	0x3e03883a	0.12844935
200	0xbedaa05b	-0.42700467
201	0xbe7555fd	-0.23958583
202	0xbe99e8fd	-0.30060568
203	0xbecfba9c	-0.4057206
204	0xbf12553c	-0.5716131
205	0xbf13a255	-0.57669574
206	0xbda6f372	-0.08151902
207	0xbe932efd	-0.28746787
208	0x3d87e9c5	0.06636385
209	0x3ab99b06	0.001416058
210	0xbd1986e5	-0.03748216
211	0x3f1e142a	0.6174952
212	0xbe6a2f15	-0.22869523
213	0xbe5de1bd	-0.21668144
214	0x3eaf115c	0.34192932
215	0xbf19f847	-0.60144466
216	0xbefa37c2	-0.48870665
217	0x3cd2de3f	0.02574074
218	0xbe86f2d9	-0.26357153
219	0xbeba77d3	-0.36419544
220	0x3cd957ee	0.026531186
221	0xbf1ce7f0	-0.6129141
222	0xbd09c3ab	-0.03363387
223	0x3d2bac9b	0.041912656
224	0xba1ca6d3	-0.00059757865
225	0x3f1a42b2	0.6025802
226	0x3e10136b	0.14069907
227	0x3eb9b238	0.36268783
228	0x3f09e06e	0.5385808
229	0xbe0a8fe4	-0.13531452
230	0xbf004d95	-0.5011838
231	0x3e99937d	0.29995337
232	0x3e5f702c	0.21820134
233	0x3e2511e8	0.16120112
234	0xbd2439f4	-0.04009433
235	0x3e6769cb	0.2259895
236	0x3f044093	0.5166103
237	0xbe6216b6	-0.22078976
238	0x3ec3dd05	0.38254562
239	0xbf1ee45c	-0.620672
240	0xbf03bf09	-0.5146337
241	0xbe449705	-0.19198234
242	0xbf186ae6	-0.59538114
243	0xbeb36a35	-0.35041967
244	0xbf08708c	-0.5329673
245	0x3e55e600	0.2088852
246	0x3ce44c88	0.027868524
247	0x3e357eb6	0.17724118
248	0x3e96f247	0.29481718
249	0x3d190f93	0.03736837
250	0xbe1a7697	-0.15084301
251	0xbeaa619e	-0.332776
252	0xbd87709b	-0.06613275
253	0x3e487f3c	0.19579786
254	0x3f1d484f	0.6143846
255	0xbe2e01b1	-0.16992833

layers.4.weight f4 [1, 20]
0	0xbf59cea5	-0.8508094
1	0x3fa08c18	1.2542753
2	0xbf0ab1dd	-0.5417765
3	0x3ed3756e	0.4130053
4	0xbe8293e3	-0.25503454
5	0x3ea2989c	0.31757057
6	0x3f7f9146	0.99831045
7	0x3d822ea3	0.063565515
8	0x3f39046b	0.72272366
9	0xbf855296	-1.0415828
10	0x3d738200	0.05945015
11	0x3f5d0f99	0.86351925
12	0xbe5f9c18	-0.21836889
13	0x3f6caaaa	0.9244791
14	0x3ed82744	0.42217457
15	0xbe330c11	-0.17485072
16	0x3e5852de	0.21125361
17	0x3f6253fb	0.88409394
18	0x3f0a71a2	0.5407964
19	0xbf67e854	-0.9058888
